Source Code/Client_Application/app/src/main/assets/final_model_4.tflite (tflite, 256988 bytes, 10 tensors)

sequential_13/dense_27/BiasAdd/ReadVariableOp f4 [10]
0	0x3d5af76d	0.05345862
1	0x3e8f34d1	0.27969983
2	0xbe2b9456	-0.16755804
3	0x3d63cd07	0.05561545
4	0xbdb8e53c	-0.09028098
5	0x3e43ba19	0.1911396
6	0xbeb024d8	-0.3440311
7	0xbec5198f	-0.38496062
8	0x3e93de55	0.28880563
9	0x3df1e5b3	0.1181139

sequential_13/dense_26/BiasAdd/ReadVariableOp f4 [100]
0	0xbd9c969e	-0.076459154
1	0xbd01d1e4	-0.031694308
2	0x3e358c00	0.17729187
3	0x3d509948	0.05092743
4	0x3e94eee1	0.290885
5	0x3e3979a8	0.18112814
6	0xbd4d7aef	-0.050166067
7	0x3e1ce1c0	0.15320492
8	0xbd22996b	-0.039697092
9	0x3dda3c03	0.106559776
10	0x3e02c9cf	0.12772296
11	0xbd9bd238	-0.076084554
12	0xbc441405	-0.011967664
13	0xbd45e550	-0.048314393
14	0xbdeff4cc	-0.11716613
15	0xbde13cee	-0.109979495
16	0xbd86b232	-0.06576957
17	0xbbbbff53	-0.005737224
18	0x3e80318c	0.250378
19	0x3ddfb157	0.10922497
20	0x3e8be054	0.27319586
21	0xbcb1b1c6	-0.021691214
22	0x3db534a2	0.088479295
23	0x3e4fda40	0.202981
24	0x3daaf5a6	0.08347635
25	0x3e833d94	0.25632918
26	0x3dbc0cca	0.09182127
27	0x3e1f0ac0	0.15531445
28	0x3db46aa1	0.088094
29	0x3e68977a	0.22714034
30	0xbc86bf17	-0.01644854
31	0xbcd5c9d4	-0.026097216
32	0x3e3ab788	0.18234074
33	0x3eb77c40	0.35836983
34	0x3c58a87a	0.013223762
35	0x3e4c0541	0.19923879
36	0x3e1ab89f	0.1510949
37	0xbbea0e39	-0.0071428088
38	0x3e156d5d	0.145925
39	0x3d4aa19c	0.04947053
40	0xbd767455	-0.060169537
41	0xbd37986c	-0.044823095
42	0x3d88a325	0.06671742
43	0x3ea9f812	0.33197075
44	0x3df4f21e	0.11960243
45	0x3c26da30	0.010183856
46	0x3e8bdecb	0.27318415
47	0x3ccbed58	0.024893448
48	0x3eb172b9	0.3465784
49	0x3ec4fcd6	0.3847415
50	0xbc8cb449	-0.01717581
51	0x3f519c41	0.8187905
52	0x3ba69072	0.005083137
53	0xbdc2b844	-0.09507802
54	0xbd877569	-0.06614191
55	0x3e78a414	0.24281341
56	0x3d3af0bd	0.045639742
57	0xbaee9166	-0.0018201291
58	0x3def305e	0.11679147
59	0x3d944c81	0.072411545
60	0x3df49edd	0.11944363
61	0x3d82c353	0.063849114
62	0xbd00cef9	-0.031447385
63	0xbe0822da	-0.13294545
64	0xbd0f5e05	-0.035001773
65	0xbcd138a4	-0.025539704
66	0x3dbbfccd	0.09179077
67	0x3d29b1f3	0.04142947
68	0x3d7e0aff	0.062022205
69	0x3e2f9216	0.17145571
70	0xbde1fc1b	-0.110344134
71	0x3df9f139	0.12204213
72	0x3e0bf941	0.13669302
73	0x3d0a9d90	0.03384167
74	0xbb4ec132	-0.003154826
75	0x3dc5402b	0.0963138
76	0xbd1aa116	-0.03775128
77	0xbc9840d6	-0.018585604
78	0xbd989796	-0.07450788
79	0x3d6dd9a6	0.058068894
80	0xbd99d6bd	-0.07511661
81	0x3e241f1b	0.16027491
82	0x3d7585c8	0.059942037
83	0x3e466e90	0.19378114
84	0x3e6875f4	0.22701246
85	0x3ceadd61	0.028670015
86	0x3e25d9b7	0.16196333
87	0x3ce94239	0.02847396
88	0xbdbf1375	-0.09329883
89	0xb9b90dd4	-0.00035296252
90	0xbb2e4adb	-0.002659491
91	0xbde94fc8	-0.1139217
92	0x3e31178f	0.17294143
93	0x3e4f5cf7	0.20250307
94	0x3d1566b2	0.03647489
95	0x3d988eaa	0.07449086
96	0x3e2f7689	0.17135061
97	0x3eb0ec30	0.34555197
98	0xbda76eca	-0.08175428
99	0x3dbda6a6	0.09260301

sequential_13/conv2d_41/BiasAdd/ReadVariableOp f4 [64]
0	0x3e7d0243	0.24707894
1	0xbe89a909	-0.26886776
2	0x3d3038a1	0.043022756
3	0xbde51177	-0.11184972
4	0x3d159e9b	0.03652821
5	0x3d8d5bc4	0.069022685
6	0xbaf88396	-0.0018960114
7	0xbd49911f	-0.049210664
8	0x3c930c34	0.017950155
9	0x3cf33d98	0.029692456
10	0xbe111d28	-0.14171278
11	0xbe75a3c1	-0.23988248
12	0xbe240c43	-0.16020302
13	0xbd5888ab	-0.05286471
14	0xbb3e9812	-0.002908234
15	0xbcf2f371	-0.029657098
16	0x3e3aa83f	0.18228243
17	0xbe993123	-0.299203
18	0x3e020aa5	0.12699373
19	0xbd20f16a	-0.03929273
20	0xbee5a459	-0.4485195
21	0xbd85f513	-0.06540885
22	0x3dc62fe5	0.09677104
23	0x3e323a4e	0.17405054
24	0x3d8827f7	0.06648248
25	0xbeacf0a7	-0.33777353
26	0xbd2f5765	-0.042807955
27	0x3def8425	0.116951264
28	0xbdd3cbba	-0.10341592
29	0x3e221f20	0.15832186
30	0xbd8941a0	-0.0670197
31	0xbec3988e	-0.38202327
32	0x3dc5e902	0.09663583
33	0x3d25c4a9	0.040470753
34	0xbe27c4a5	-0.16383608
35	0xbe1c6d16	-0.15275988
36	0x3c9cda78	0.019147143
37	0x3b498c9f	0.0030753983
38	0x3baa47ca	0.005196546
39	0xbcf23dd4	-0.029570498
40	0xbe84263d	-0.25810423
41	0xbe022d7e	-0.12712666
42	0x3eb64551	0.3559976
43	0x3d9a1c5e	0.07524942
44	0xbe2b4973	-0.16727237
45	0xbc66c639	-0.014085346
46	0xbda60cbf	-0.081079
47	0xbd8d63d8	-0.06903809
48	0x3deda968	0.11604577
49	0x3e03c02b	0.12866275
50	0xbe1a3649	-0.1505977
51	0x3d8384a4	0.064217836
52	0xbd5dad5b	-0.054120403
53	0xbda5e1bf	-0.08099698
54	0x3cd7b904	0.02633334
55	0x3dcdb194	0.10043636
56	0xbd42580f	-0.04744726
57	0xbbd20316	-0.0064090593
58	0xbd6b8e35	-0.057508666
59	0x3e49ba04	0.19699866
60	0xbd86945b	-0.06571265
61	0xbd01151b	-0.03151427
62	0x3daaf621	0.083477266
63	0xbeaa98d8	-0.33319736

sequential_13/conv2d_40/BiasAdd/ReadVariableOp f4 [64]
0	0xbdaf6ca1	-0.08565641
1	0xbdbb870b	-0.09156617
2	0xbe480e62	-0.19536737
3	0xbdf1f919	-0.1181509
4	0xbc3d23bf	-0.011544167
5	0xbdb8d09f	-0.09024166
6	0xbe129a32	-0.14316633
7	0xbf6fb0ba	-0.9362904
8	0xbddcb846	-0.10777335
9	0xbe0ae48b	-0.13563745
10	0x3e1ec67d	0.15505405
11	0xbd99d8cb	-0.07512053
12	0xbd5cc987	-0.05390313
13	0xbd1c9940	-0.038232088
14	0x3d02355f	0.03178918
15	0xbac564f0	-0.0015059989
16	0x3e542a98	0.20719373
17	0xbe3c3248	-0.18378556
18	0xbe5927dc	-0.21206611
19	0x3e298bbd	0.16557212
20	0xbe2b09c0	-0.16702938
21	0xbe28359c	-0.164267
22	0xbdff52e7	-0.12466984
23	0xbd73f2fa	-0.059557892
24	0xbd2fb8d3	-0.04290087
25	0xbe2ab01b	-0.16668741
26	0xbd33ad80	-0.043866634
27	0xbb787d85	-0.0037916612
28	0xbd776d91	-0.060407225
29	0x3e6e57d7	0.23275696
30	0xbcf41298	-0.029794022
31	0xbd939c48	-0.07207543
32	0xbdafdd2e	-0.085871086
33	0xbe0d1378	-0.13776958
34	0xbc40fec0	-0.011779487
35	0xbd0e27bf	-0.034705874
36	0x3e51bdf7	0.20482622
37	0xbdf439d3	-0.119250916
38	0xbd9058f2	-0.07048215
39	0xbe95a87a	-0.292301
40	0xbd560290	-0.052248538
41	0xbcad25d8	-0.02113621
42	0xbcbafbd7	-0.022825165
43	0xbd9f10e5	-0.07766894
44	0x3c14fdbd	0.009093699
45	0xbbfc5e1d	-0.007701649
46	0xbea7a0c9	-0.32739857
47	0xbe2edbfb	-0.17076103
48	0xbc2749be	-0.010210453
49	0x3d444754	0.047919586
50	0xbcc1ba54	-0.023648418
51	0xbd5ad0f6	-0.053421937
52	0xbaa3edc1	-0.0012506769
53	0x3df67a31	0.12035025
54	0xbf1f12cd	-0.6213806
55	0xbd8fbd56	-0.07018535
56	0xbe057ad0	-0.1303513
57	0xbd3dc885	-0.04633381
58	0xbe9f1f0c	-0.31078374
59	0xbde6df30	-0.112730384
60	0xbd896a09	-0.06709678
61	0x3ca94a87	0.02066542
62	0x3d5ba3e4	0.053623095
63	0xbd31edf6	-0.043439828

sequential_13/conv2d_39/BiasAdd/ReadVariableOp f4 [32]
0	0xbda40200	-0.08008194
1	0xbe20ac6b	-0.15690772
2	0xbda4952b	-0.08036264
3	0xbd3d88f6	-0.046273194
4	0xbd4dabf5	-0.05021282
5	0x3d5dd4ec	0.054158136
6	0xbe803dac	-0.25047052
7	0xbf0d05cd	-0.55086976
8	0xbcb50217	-0.022095723
9	0xbde933aa	-0.11386807
10	0xbd8435a5	-0.064555444
11	0xbe99164c	-0.29899824
12	0xbd0d4aa0	-0.034494996
13	0xbd834528	-0.06409675
14	0xbe0afadf	-0.13572262
15	0xbd59f9ec	-0.05321686
16	0xbcbb698d	-0.022877479
17	0xbd5a9d7a	-0.053372838
18	0xbd02adb5	-0.03190394
19	0xbd5f7ef3	-0.054564428
20	0xbf883bfb	-1.0643305
21	0xbf86c37e	-1.052841
22	0xbc913a14	-0.01772789
23	0xbed54d7c	-0.41660678
24	0xbdc0483f	-0.0938878
25	0xbcfb2c8f	-0.030660896
26	0xbd3e8d97	-0.04652175
27	0xbf243469	-0.6414247
28	0xbf7e71cb	-0.99392384
29	0xbb891573	-0.004183465
30	0xbd9075ef	-0.07053744
31	0xbeba8afa	-0.36434156

sequential_13/dense_26/MatMul f4 [100, 64]
0	0xbde0dbad	-0.109794
1	0x3e21e6ce	0.15810701
2	0x3e3b768d	0.18306942
3	0x3ef67902	0.48139197
4	0xbcf6643f	-0.030077098
5	0xbe6e0b33	-0.2324646
6	0x3dc59736	0.09647982
7	0x3e325c51	0.17418028
8	0x3ea3dcfa	0.3200453
9	0x3e333219	0.1749958
10	0x3e81d36b	0.25356612
11	0xbe3fa750	-0.18716168
12	0x3e390836	0.18069538
13	0xbeba5e0f	-0.36399886
14	0x3dd03a20	0.101673365
15	0xbd96f61c	-0.073711604
16	0xbe8ae2a8	-0.2712605
17	0xbe0d6966	-0.13809738
18	0x3e7c9b6c	0.24668664
19	0xbd9b0a5e	-0.07570337
20	0x3d52b962	0.051446326
21	0x3d8e48c9	0.069474764
22	0xbcb8398f	-0.022488384
23	0x3eb74860	0.35797405
24	0x3ec4aa45	0.38411155
25	0xbeaee7d5	-0.3416125
26	0xbc3d8ac8	-0.011568733
27	0xbcf1b232	-0.029503915
28	0x3e29a759	0.16567744
29	0xbedde4e4	-0.43338692
30	0x3e7d42a3	0.24732451
31	0xbe66e37c	-0.22547716
32	0xbca206c2	-0.019778613
33	0x3e30b348	0.1725589
34	0xbd340758	-0.043952316
35	0x3e3ac129	0.18237747
36	0xbd76eb83	-0.060283195
37	0xbdd96eb8	-0.10616821
38	0xbe591caf	-0.21202348
39	0xbe6b9129	-0.23004593
40	0x3c3afc7e	0.011412738
41	0xbdc8a54a	-0.097971514
42	0xbe9ee044	-0.31030476
43	0x3d722278	0.059114903
44	0x3e357a77	0.17722498
45	0xbebb535e	-0.36587042
46	0x3e98b821	0.2982798
47	0x3d8c1210	0.06839383
48	0x3de9ccea	0.114160374
49	0x3eb5583b	0.35418877
50	0xbeca8319	-0.39553145
51	0xbec483a3	-0.3838168
52	0x3df98d7a	0.12185188
53	0xbd56d009	-0.05244449
54	0xbd0910ef	-0.033463415
55	0xbe811848	-0.25213838
56	0xbda594ab	-0.08084997
57	0x3e14d018	0.14532506
58	0xbd9bc4c7	-0.07605892
59	0x3e696737	0.2279328
60	0xbcef85e2	-0.029238645
61	0x3ea210f6	0.31653565
62	0xbe583048	-0.21112168
63	0xbe33c91f	-0.1755719
64	0x3e3b9a3f	0.18320559
65	0xbdac66c6	-0.0841804
66	0xbe0dc60f	-0.13845085
67	0x3d1c1b8c	0.03811221
68	0x3e4181ee	0.1889722
69	0x3e4cae29	0.19988312
70	0xbd5f1029	-0.05445877
71	0x3ddf38ab	0.108994804
72	0xbdf0af76	-0.117522165
73	0x3e136bd4	0.14396602
74	0x3c85b3c0	0.016321063
75	0xbe4fd47c	-0.202959
76	0xbdc9bc58	-0.09850377
77	0x3e710516	0.23537096
78	0x3e88b936	0.26703805
79	0x3e04534e	0.12922403
80	0xbe428df5	-0.18999465
81	0xbe6eede0	-0.2333293
82	0xbde5f17b	-0.11227699
83	0xbdb0a1fe	-0.086246476
84	0x3db67759	0.089094825
85	0xbe94bc60	-0.2904997
86	0xbe6493e7	-0.22322045
87	0xbe0ec4f2	-0.13942316
88	0xbde8924a	-0.113560274
89	0x3ca51aa1	0.0201543
90	0xbe82b2cf	-0.25527045
91	0xbd6c989c	-0.057762727
92	0xbd978ea7	-0.07400256
93	0xbe978b00	-0.29598236
94	0xbca41753	-0.020030653
95	0xbe47ebe6	-0.19523582
96	0xbe586f1c	-0.21136135
97	0xbe8bc73b	-0.27300438
98	0xbe27bc58	-0.16380441
99	0xbea01e9b	-0.3127335
100	0x3d478128	0.048707157
101	0x3e65c424	0.22438103
102	0xbd910272	-0.070805445
103	0x3d227b9b	0.03966866
104	0x3e81b086	0.2532999
105	0xbd1ada93	-0.037806105
106	0xbe5ae7ac	-0.21377438
107	0x3c9166ff	0.017749308
108	0x3e3011fb	0.17194359
109	0xbe4572c2	-0.19282058
110	0x3dfbb1d8	0.122897804
111	0xbe067289	-0.13129629
112	0x3df31049	0.118683405
113	0x3d339c27	0.04385009
114	0xbe0e86d7	-0.13918625
115	0x3e07396a	0.13205495
116	0x3e7d7130	0.24750209
117	0xbe3c32ff	-0.18378828
118	0xbe983b0b	-0.29732546
119	0xbe728619	-0.23683967
120	0x3dee6024	0.11639431
121	0xbe841ab4	-0.25801623
122	0x3e6a348e	0.2287161
123	0x3d331bcf	0.043727692
124	0x3e91b7e7	0.2846062
125	0x3dfc0767	0.123060994
126	0xbc1df492	-0.00964083
127	0xbe55c30c	-0.20875186
128	0x3dfbc1a7	0.12292796
129	0xbe5d0261	-0.21582939
130	0x3d838919	0.06422634
131	0x3dd5914a	0.10428102
132	0xbed93b4e	-0.42428058
133	0xbe19acf7	-0.15007387
134	0xbdef2fd3	-0.116790436
135	0xbe016845	-0.12637432
136	0x3f19a387	0.6001515
137	0xbd9ff770	-0.07810867
138	0xbe569eec	-0.20959061
139	0x3e762e42	0.24041083
140	0xbe37b657	-0.17940651
141	0x3e183623	0.14864402
142	0xbe6202cd	-0.22071381
143	0xbd41852b	-0.04724614
144	0x3d6ba8e2	0.057534106
145	0xbe38cf31	-0.18047787
146	0x3e0e27cd	0.1388237
147	0xbe888177	-0.26661274
148	0xbe7913ae	-0.24323913
149	0xbc547441	-0.01296717
150	0x3e57f48f	0.21089385
151	0x3e8f6242	0.28004652
152	0x3e8a9f15	0.27074495
153	0xbea85b22	-0.3288203
154	0x3c81116f	0.015755383
155	0x3ec1bf69	0.37841347
156	0xbe2705da	-0.16310826
157	0xbdece9f3	-0.1156806
158	0x3e822bee	0.2542414
159	0xbf14c89b	-0.581186
160	0x3e49b1d1	0.19696738
161	0x3ebb3af0	0.36568403
162	0x3ea8593f	0.3288059
163	0x3cc48b9b	0.02399235
164	0x3e7975e3	0.24361376
165	0x3e275761	0.16341926
166	0xbd6105a2	-0.054937012
167	0xbdb58327	-0.08862906
168	0xbdfe2291	-0.12408937
169	0xbe69f3de	-0.22846934
170	0xbe6b213d	-0.22961898
171	0xbe121835	-0.14267047
172	0xbddcc04a	-0.10778864
173	0x3e24bf28	0.16088545
174	0xbc6aa4b0	-0.014321491
175	0xbe36422e	-0.17798683
176	0xbea54cf7	-0.32285282
177	0x3ea305e7	0.3184044
178	0xbe4620f8	-0.19348514
179	0xbedff4f5	-0.43741575
180	0x3da73479	0.08164305
181	0x3c93a6d3	0.018023884
182	0xbd4586a6	-0.048224114
183	0x3e9de43a	0.30838186
184	0xbe097892	-0.134249
185	0x3daac91f	0.08339142
186	0xbdf0042d	-0.117195465
187	0x3e916c48	0.28402925
188	0xbcb3ab60	-0.021932304
189	0xbc8ca51f	-0.01716858
190	0x3d90d67b	0.07072159
191	0xbb28695d	-0.0025697567
192	0x3e95b53c	0.29239833
193	0xbe51bc3e	-0.20481965
194	0xbe9b830a	-0.30373412
195	0x3dc11f96	0.09429853
196	0xbe331b65	-0.17490919
197	0xbe5579ca	-0.2084724
198	0xbece6827	-0.40313837
199	0xbee13ffc	-0.4399413
200	0xbda92e7e	-0.08260821
201	0xbb38c534	-0.0028193714
202	0xbd0a0e9d	-0.033705343
203	0xbe714d0e	-0.2356455
204	0x3eac35a7	0.33634683
205	0x3e46eaf7	0.1942557
206	0xbe8b4b3e	-0.27205843
207	0x3e712539	0.23549356
208	0xbd47ee48	-0.048811227
209	0x3d9c0833	0.076187514
210	0x3df188d2	0.117936745
211	0xbe641f70	-0.22277617
212	0xbcbde350	-0.02317968
213	0xbeabe032	-0.33569485
214	0xbeb0e1c7	-0.34547254
215	0x3e261ec4	0.16222674
216	0xbe884da8	-0.26621747
217	0x3dd08b48	0.10182816
218	0xbe31cf5c	-0.17364258
219	0x3d0b1472	0.033955045
220	0xbe9b0d07	-0.30283377
221	0x3c8b858b	0.017031452
222	0xbe947f34	-0.29003298
223	0xbe35dbb4	-0.17759591
224	0x3e037bc2	0.12840179
225	0x3e434d30	0.19072413
226	0xbe791cd5	-0.24327405
227	0x3e710692	0.23537663
228	0x3d6b25fc	0.05740927
229	0xbe233154	-0.15936786
230	0xbdfade78	-0.12249464
231	0x3e2e082b	0.16995303
232	0xbe51a0de	-0.20471522
233	0x3e821c1d	0.25412074
234	0xbe0452dd	-0.12922235
235	0x3e8b1718	0.27166057
236	0xbe8c088c	-0.2735027
237	0x3df2678b	0.118361555
238	0x3e47cc86	0.19511613
239	0x3e7caa52	0.24674347
240	0x3e09d3f0	0.13459754
241	0x3d73656e	0.059422903
242	0xbd3394b7	-0.043842997
243	0x3ce74dde	0.028235372
244	0x3e52d8a7	0.20590459
245	0xbe3a1f60	-0.18176031
246	0x3d149153	0.036271404
247	0xbea55941	-0.32294658
248	0x3e3b2452	0.18275574
249	0x3c73336a	0.014843801
250	0x3e942628	0.2893536
251	0x3d24b752	0.04021389
252	0x3ddc25a2	0.107493654
253	0xbe3cb23c	-0.18427366
254	0xbe848659	-0.2588375
255	0xbdebfec8	-0.11523205

sequential_13/dense_27/MatMul f4 [10, 100]
0	0x3caf5255	0.021401564
1	0xbe106485	-0.14100845
2	0xbe20665b	-0.15664046
3	0x3daf61bf	0.085635655
4	0x3d855512	0.065103665
5	0x3e5aebb6	0.21378979
6	0x3daefc51	0.08544219
7	0xbf047391	-0.5173884
8	0xbe659323	-0.2241941
9	0x3c91befb	0.017791262
10	0xbecbd38c	-0.39809835
11	0xbebc44e8	-0.3677132
12	0xbdd25421	-0.102699526
13	0x3e5e07ce	0.21682665
14	0xbe9d8ba4	-0.307706
15	0x3e027472	0.12739733
16	0xbdb68ba1	-0.08913351
17	0xbcc62a8e	-0.024190214
18	0xbd4be352	-0.049777336
19	0xbdad4bd2	-0.08461727
20	0xbddadca6	-0.106866166
21	0xbe96bf87	-0.29443
22	0xbecfbf19	-0.40575483
23	0xbe5dfd13	-0.21678571
24	0x3df52bc3	0.119712375
25	0xbe6bf00d	-0.23040791
26	0x3d81ae2e	0.0633205
27	0xbea6e1fe	-0.32594293
28	0x3c62a801	0.013834001
29	0xbea0f091	-0.31433538
30	0x3e5c10df	0.21490811
31	0xbdf6a058	-0.12042302
32	0xbeff7a5a	-0.49898034
33	0x3e20e40e	0.15711996
34	0xbc2867e5	-0.010278677
35	0x3e768997	0.24075924
36	0xbe5d7072	-0.21624926
37	0x3e534bf2	0.2063444
38	0xbe7f9a75	-0.24961264
39	0xbe61fa6c	-0.22068185
40	0x3cdc503c	0.026893727
41	0xbde95ea7	-0.113950066
42	0x3da11b57	0.07866543
43	0xbe854bea	-0.2603448
44	0x3dee4083	0.116333984
45	0x3ebe5ef0	0.37181807
46	0xbd9e6cab	-0.077355705
47	0xbb82caed	-0.003991476
48	0x3d8b00c7	0.06787258
49	0xbddaf3c1	-0.106910236
50	0xbe8928ea	-0.26789027
51	0xbf098102	-0.53712475
52	0xbd59730b	-0.05308823
53	0x3dacff91	0.08447183
54	0xbd7422e9	-0.059603605
55	0x3e13284c	0.14370841
56	0xbe613721	-0.21993686
57	0x3c687b66	0.014189577
58	0xbec6955b	-0.38785824
59	0x3e74eed7	0.23919235
60	0xbdbd6b4c	-0.09248981
61	0x3e511dc9	0.20421518
62	0xbe5afa6c	-0.21384591
63	0x3d48b070	0.04899639
64	0x3e212f63	0.15740733
65	0xbda25d3f	-0.079279415
66	0xbde571b4	-0.11203328
67	0xbdfae833	-0.1225132
68	0x3e8cffc5	0.27538887
69	0x3e981434	0.29702914
70	0x3a35c108	0.0006933366
71	0xbe486c97	-0.19572674
72	0xbd7e7409	-0.06212238
73	0xbdcbdd27	-0.09954291
74	0xbdc7f11f	-0.09762787
75	0x3e4293b9	0.19001664
76	0xbe557fe2	-0.20849565
77	0x3cb42fb0	0.021995395
78	0xbced8bcc	-0.028997324
79	0x3e0df722	0.13863805
80	0xbdf8c1b5	-0.12146322
81	0x3e86b977	0.26313373
82	0xbec564d0	-0.38553476
83	0x3ec94d5e	0.3931684
84	0xbbf0a806	-0.0073442487
85	0xbe16439a	-0.14674225
86	0xbc2c2045	-0.0105057405
87	0x3e9dfe51	0.3085809
88	0xbeedd209	-0.46449307
89	0xbe182832	-0.14859083
90	0xbe9c8e01	-0.3057709
91	0xbc1265b5	-0.008935382
92	0xbe76a616	-0.24086794
93	0x3f062465	0.52399284
94	0xbe5694ad	-0.20955153
95	0xbe5862fa	-0.21131507
96	0x3e58b4af	0.21162675
97	0x3e11b6ee	0.14229938
98	0x3d65a071	0.056061212
99	0x3e6111db	0.21979468
100	0xbecd09b8	-0.40046477
101	0xbdf17cdd	-0.11791394
102	0x3ccb30fd	0.024803633
103	0xbe66dc36	-0.22544941
104	0x3f09c986	0.53823125
105	0xbe5017fb	-0.20321648
106	0x3d1a0cd9	0.03760991
107	0xbea2fe47	-0.31834623
108	0x3c1d5073	0.0096017
109	0x3d52239d	0.051303495
110	0x3ec9e26b	0.39430556
111	0x3e118221	0.14209796
112	0x3e04cb61	0.12968208
113	0xbe91c502	-0.28470618
114	0xbe938301	-0.28810886
115	0xbe0cea06	-0.13761148
116	0xbdd2a44b	-0.10285243
117	0xbe564e9c	-0.20928425
118	0x3e7577f9	0.23971547
119	0x3e403914	0.18771774
120	0x3ed83ba4	0.42233002
121	0x3b055d3c	0.0020349761
122	0xbec53355	-0.38515726
123	0x3f2c46dd	0.6729563
124	0x3cede679	0.029040562
125	0x3e9c7a69	0.30562142
126	0xbe39b334	-0.18134767
127	0x3f250c87	0.6447224
128	0x3c6a2f0e	0.014293445
129	0xbe411205	-0.1885453
130	0x3e04f176	0.12982735
131	0x3e62f178	0.22162426
132	0x3e804b19	0.25057295
133	0x3ec2fed0	0.38085032
134	0xbe480ff7	-0.1953734
135	0xbef8a222	-0.48561198
136	0x3e781a3d	0.24228759
137	0xbdf131ef	-0.11777102
138	0xbe2c8170	-0.16846251
139	0xbf00d6cf	-0.5032777
140	0x3e5f46a1	0.21804287
141	0xbea8d52b	-0.32975134
142	0x3c9e8268	0.019349292
143	0xbd2b4c56	-0.041820846
144	0xbe09e17b	-0.1346492
145	0xbe1eab77	-0.15495096
146	0x3ef03799	0.46917418
147	0x3e04818b	0.12940042
148	0x3e52b6f1	0.20577599
149	0x3e5a4a09	0.21317305
150	0xbd80800e	-0.062744245
151	0x3f3e90d0	0.74439716
152	0xbd9945a1	-0.07483984
153	0xbe41eade	-0.18937251
154	0xbe142ce6	-0.14470252
155	0xbe8ffe1b	-0.28123555
156	0x3ed42e0b	0.41441378
157	0x3d341817	0.043968286
158	0x3e9b9d57	0.30393478
159	0xbdb302d7	-0.08740776
160	0x3eba77ea	0.36419612
161	0xbef69b02	-0.48165137
162	0x3d897007	0.06710821
163	0x3eabe063	0.3356963
164	0xbe299e82	-0.16564372
165	0x3d428c36	0.047496997
166	0xbdcb9619	-0.09940738
167	0xbefa0630	-0.48832846
168	0x3da77160	0.081759214
169	0xbed5703c	-0.4168719
170	0xbea3cb80	-0.31991196
171	0xbef925a3	-0.48661527
172	0xbe25eb62	-0.16203073
173	0x3e1cbdfd	0.1530685
174	0x3d33a869	0.04386178
175	0x3a8bc8f2	0.0010664745
176	0xbd86139d	-0.0654671
177	0x3c19324d	0.009350372
178	0xbdee7bd1	-0.1164471
179	0xbe6c5692	-0.23079899
180	0xbec78426	-0.3896801
181	0xbea6e542	-0.32596785
182	0x3e08b347	0.13349639
183	0xbef26976	-0.47346085
184	0x3db1fd89	0.08690936
185	0xbd140feb	-0.036147993
186	0xbead93f2	-0.33901936
187	0x3e5bdc13	0.2147067
188	0xbec8d6a6	-0.39226264
189	0xbbf56c80	-0.007489741
190	0xbe3e8c6d	-0.18608256
191	0xbe6af889	-0.22946371
192	0xbeb85534	-0.36002505
193	0xbe31e719	-0.17373313
194	0x3f03a819	0.5142837
195	0x3e6a821f	0.229012
196	0xbd3801a3	-0.044923436
197	0xbe3f2544	-0.1866656
198	0xbdbdc073	-0.092652224
199	0xbef191bc	-0.471815
200	0x3d9d843a	0.07691236
201	0xbe41254f	-0.18861888
202	0x3dd76876	0.10517971
203	0xbe215d3f	-0.15758227
204	0xbed99073	-0.42493019
205	0xbeb946c4	-0.36186802
206	0x3e2d268e	0.16909239
207	0x3dcc663f	0.099804394
208	0x3e2d5771	0.16927887
209	0xbc945fe3	-0.018112129
210	0x3ebeba83	0.37251672
211	0x3eb0ca2a	0.3452924
212	0x3e309715	0.17245133
213	0xbe0b26e6	-0.13589057
214	0x3e9deda4	0.30845368
215	0x3e8c055b	0.27347836
216	0xbe2cbb84	-0.16868407
217	0x3d462dac	0.0483834
218	0xbdbc0e10	-0.0918237
219	0xbe29686c	-0.1654374
220	0x3e3f2248	0.18665421
221	0xbe9a5893	-0.30145702
222	0xbe63f3d6	-0.22260985
223	0xbd58a6ac	-0.052893326
224	0xbd973215	-0.07382599
225	0xbe97be60	-0.29637432
226	0x3d442893	0.047890257
227	0xbe9c53e3	-0.3053275
228	0x3e8ee0de	0.27905935
229	0x3d00efd0	0.031478703
230	0x3ee572d0	0.44814157
231	0xbe179b75	-0.14805396
232	0x3e25ff14	0.16210586
233	0xbf08d8ca	-0.53455794
234	0x3e4ed807	0.20199595
235	0x3daef111	0.085420735
236	0xbec8a1ec	-0.39186037
237	0x3c81a86b	0.015827378
238	0xbe5624c2	-0.2091246
239	0xbe5c6997	-0.21524654
240	0xbcc49ad8	-0.023999617
241	0xbe086393	-0.13319235
242	0xbe26dc17	-0.16294895
243	0xbd473e1f	-0.048643228
244	0xbb050920	-0.0020299628
245	0x3d9bbfe1	0.07604957
246	0xbc91b3b2	-0.01778588
247	0xbe62ca8b	-0.22147577
248	0xbcd0f2fd	-0.02550649
249	0xbe842720	-0.258111
250	0xbe4828f1	-0.19546868
251	0xbe89c9a8	-0.26911664
252	0xbe4e966b	-0.20174567
253	0x3ec7655d	0.38944522
254	0x3f112a12	0.5670482
255	0xbee898d8	-0.4542911

sequential_13/conv2d_39/Conv2D f4 [32, 3, 3, 1]
0	0xbfbcfe22	-1.4765055
1	0x3f87a91b	1.0598482
2	0x3dba5f40	0.09100199
3	0xbe85b727	-0.26116297
4	0x3f75d925	0.9603446
5	0xbea02b70	-0.3128314
6	0xbee109d0	-0.439528
7	0x3e25ead8	0.16202867
8	0x3e3c3f06	0.18383417
9	0xbef115f9	-0.47087076
10	0x3ebd6cb1	0.36996987
11	0x3e0d9d56	0.1382955
12	0x3f2e875e	0.68175304
13	0x3e20503f	0.15655611
14	0xbdf07b4d	-0.11742268
15	0xbe5600b3	-0.20898704
16	0xbf158074	-0.5839913
17	0xbe44dc30	-0.1922462
18	0x3f9b5707	1.2135934
19	0xbf81ddf2	-1.0145857
20	0x3e6f035d	0.23341127
21	0xbf97531e	-1.182224
22	0x3da49a5b	0.080372535
23	0xbf039c1f	-0.51410097
24	0x3e417a5c	0.18894333
25	0xbe13eb95	-0.14445336
26	0x3ec79780	0.38982773
27	0x3edfeec7	0.4373686
28	0x3e4ed5ff	0.2019882
29	0xbf00b5fc	-0.50277686
30	0x3e991fac	0.29906976
31	0xbf038695	-0.5137723
32	0xba126ff1	-0.00055861386
33	0xbc7e178a	-0.015508542
34	0xbd4ee949	-0.050515447
35	0xbc2d41a2	-0.01057473
36	0x3bebbff3	0.007194513
37	0x3ec091a5	0.37611118
38	0xbf07a110	-0.52980137
39	0xbf00334c	-0.5007827
40	0xbed0ff7d	-0.40819922
41	0x3f3384cd	0.7012451
42	0xbe2d944a	-0.16951099
43	0x3f4508a7	0.7696633
44	0xbf4a5ca1	-0.7904759
45	0x3f7a6470	0.97809505
46	0xbf2dafce	-0.6784638
47	0x3da80154	0.08203378
48	0x3e89ec1f	0.2693796
49	0xbf4656c7	-0.7747616
50	0x3c21665b	0.009851064
51	0xbdb03365	-0.08603553
52	0xbdcf7421	-0.10129572
53	0x3c45f22c	0.012081664
54	0xbfd94655	-1.6974589
55	0x3ee4dfc1	0.4470196
56	0xbe7f5bbc	-0.24937338
57	0x3f43bc65	0.7645934
58	0x3ebeee63	0.3729125
59	0x3c880326	0.016603064
60	0x3f04b2fd	0.51835614
61	0x3dbf3ec7	0.09338146
62	0x3e079228	0.13239348
63	0x3ee45f0e	0.4460377
64	0x3ece2001	0.40258792
65	0x3e84d7cd	0.25945893
66	0x3ebb1b54	0.36544287
67	0xbf367a7a	-0.71280634
68	0xbd3fcb6b	-0.046824854
69	0x3d427e72	0.04748387
70	0x3efd5dd8	0.4948566
71	0xbf1c2fd1	-0.6101046
72	0xbf0a2287	-0.53958935
73	0x3d19b21d	0.037523378
74	0xbf08957e	-0.53353107
75	0x3f806c6c	1.0033088
76	0x3f03af0e	0.5143899
77	0xbecd2904	-0.40070355
78	0xbf84c73d	-1.0373303
79	0xbea2e9af	-0.3181891
80	0xbf18ec0f	-0.59735197
81	0x3f9eae94	1.2397027
82	0x3f3c249a	0.7349335
83	0x3e5bfa7f	0.21482275
84	0xbfa94633	-1.3224548
85	0xbf440e67	-0.76584476
86	0xbe3aab7e	-0.18229482
87	0xbee3203a	-0.44360524
88	0x3d4a22b5	0.049349505
89	0x3e3f4e4f	0.18682216
90	0x3e91c493	0.28470287
91	0xbf130f3c	-0.5744512
92	0xbec5eb1c	-0.38655937
93	0xbf512169	-0.81691605
94	0x3eb33cf4	0.3500744
95	0x3e242715	0.16030534
96	0x3f52e38a	0.8237845
97	0x3e521a4a	0.20517841
98	0xbf77d35d	-0.9680689
99	0x3ecf4271	0.40480378
100	0xbcba6156	-0.022751492
101	0x3e5350ee	0.20636341
102	0x3efb022b	0.49025092
103	0x3e945527	0.28971216
104	0x3edf8aee	0.43660682
105	0xc03c0386	-2.937715
106	0xbf70ca4a	-0.9405867
107	0x3e50bd53	0.20384721
108	0xbd2f5974	-0.04280992
109	0xbea1579c	-0.31512153
110	0xbf32dc00	-0.69866943
111	0x3f6d6f50	0.92747974
112	0xbf46219d	-0.7739504
113	0x3ef354dc	0.4752568
114	0xbf0a04b9	-0.53913456
115	0xbef08ca8	-0.46982312
116	0x3e5afe81	0.21386148
117	0x3fa2d4cc	1.272119
118	0xbe90df8e	-0.2829556
119	0xbcb617b9	-0.022228109
120	0xbfc030b6	-1.5014865
121	0xbe520710	-0.20510507
122	0x3c51998a	0.012792954
123	0x3edbf6ab	0.4296163
124	0x3dceb880	0.10093784
125	0x3dd7602e	0.10516392
126	0xbf1a64f4	-0.6031029
127	0x3ebfcf4e	0.37462848
128	0x3e9f3c1f	0.31100556
129	0xbe58ef6f	-0.21185087
130	0x3ee50071	0.447269
131	0xbda433a6	-0.08017664
132	0x3e8aea01	0.27131656
133	0xbe82c92e	-0.25544113
134	0xbf8c851d	-1.0978123
135	0xbf478a32	-0.77945244
136	0xbf8f445f	-1.119274
137	0xbf3917e8	-0.72302103
138	0xbe28fbbc	-0.16502279
139	0x3f129b97	0.5726866
140	0xbf512016	-0.81689584
141	0x3f88e558	1.069499
142	0x3ebbe0a3	0.36694822
143	0xbf3d3f8c	-0.7392509
144	0xbf887593	-1.0660881
145	0xbf0736be	-0.52817905
146	0x3e271b78	0.16319072
147	0x3f54f10f	0.83180326
148	0xbf460187	-0.7734608
149	0x3ea5a2d5	0.32350793
150	0x3f14dca5	0.58149177
151	0x3e14a238	0.14515007
152	0xbeb7eb34	-0.35921633
153	0xbddb7055	-0.10714785
154	0xbf425e41	-0.7592507
155	0x3e0f72ef	0.14008687
156	0xbf368934	-0.71303105
157	0x3f55ebcd	0.8356293
158	0x3ea1b93a	0.3158663
159	0xbf1fad8b	-0.6237418
160	0x3f10b3c2	0.5652429
161	0xbeeec631	-0.46635583
162	0xbf5db23b	-0.86600083
163	0x3f5300e5	0.8242324
164	0x3b888bda	0.004167062
165	0xbf9efd24	-1.2421002
166	0xbe96c3f6	-0.2944638
167	0x3f1816a8	0.5940957
168	0x3dcef64b	0.101055704
169	0xbe986aaa	-0.29768878
170	0x3f43f269	0.76541764
171	0xbd9dc960	-0.07704425
172	0xbc4dd1f8	-0.0125622675
173	0xbe773cde	-0.24144313
174	0xbed4f344	-0.41591847
175	0x3f525517	0.82161087
176	0xbf0ac75e	-0.5421046
177	0x3e9e9dec	0.3097986
178	0xbded3f6e	-0.11584364
179	0xbe2008ce	-0.15628359
180	0x3f73ee63	0.95285624
181	0xbe78ff4d	-0.2431614
182	0x3f0e5344	0.55595803
183	0x3e2d9cc4	0.16954333
184	0xbf0380b7	-0.5136828
185	0x3df433c5	0.11923937
186	0x3f03ae94	0.5143826
187	0x3d0c5060	0.03425634
188	0x3f3af05c	0.7302301
189	0x3c23265e	0.009957878
190	0x3f254738	0.64561796
191	0x3f0263ee	0.5093373
192	0x3f79587e	0.97400653
193	0xbf1b0506	-0.6055454
194	0x3e96111c	0.29309928
195	0x3f1376e0	0.57603264
196	0xbf74f84a	-0.9569136
197	0xbc923421	-0.017847123
198	0xbe8acca8	-0.27109265
199	0x3ed5cf2e	0.41759628
200	0xbea5f9b0	-0.3241706
201	0xbf327079	-0.6970287
202	0x3ef6a2c7	0.48171064
203	0xbdedb500	-0.11606789
204	0xbf414dd1	-0.75509363
205	0xbe5019e9	-0.20322384
206	0xbf2e925f	-0.68192095
207	0x3f58cd5e	0.84688365
208	0x3f585d48	0.84517336
209	0x3eb33f9a	0.35009462
210	0xbfb673b1	-1.4254056
211	0x3f1cefb2	0.61303246
212	0xbc16f33a	-0.009213263
213	0xbf824afe	-1.0179136
214	0x3e654126	0.22388133
215	0xbd01a0a5	-0.031647343
216	0x3edf918f	0.4366574
217	0xbfb7e87a	-1.4367821
218	0x3dfe13b1	0.124060996
219	0x3f300219	0.687532
220	0xbd325006	-0.043533348
221	0xbec71eb5	-0.38890615
222	0x3e8f317a	0.27967435
223	0xbf38d1ea	-0.72195303
224	0x3f1c6435	0.61090404
225	0x3df7c774	0.120985895
226	0x3ed95228	0.42445493
227	0x3e34131b	0.17585413
228	0xbf54c384	-0.83110833
229	0xbeaf73c8	-0.34268022
230	0xbf4b574c	-0.7943008
231	0xbe66a5cc	-0.22524184
232	0xbf3c20f8	-0.73487806
233	0x3f1a009b	0.60157174
234	0xbf12f0c5	-0.57398635
235	0x3f85e5aa	1.0460713
236	0xbe355b99	-0.17710723
237	0xbf52a29d	-0.8227938
238	0x3f5cc12a	0.86232245
239	0x3ddd715d	0.10812638
240	0xbeb3bb4c	-0.35103834
241	0xbf52657d	-0.8218611
242	0xbf6a88cd	-0.9161499
243	0x3f50c8f5	0.81556636
244	0x3ddc5aa4	0.10759476
245	0xbe0546ea	-0.13015333
246	0xbf27e99d	-0.6559084
247	0xbf81b3da	-1.0133011
248	0xbf1669fe	-0.5875548
249	0x3f6756e7	0.9036698
250	0x3e9a99be	0.3019542
251	0x3ef9f108	0.48816705
252	0x3f86306d	1.0483528
253	0xbef20c01	-0.47274783
254	0xbf8f2cf4	-1.1185594
255	0x3e35b3a9	0.17744316

sequential_13/conv2d_40/Conv2D f4 [64, 3, 3, 32]
0	0xbdf20d7f	-0.118189804
1	0x3dc170b5	0.09445325
2	0xbda293d6	-0.07938354
3	0xbdf16cd4	-0.117883354
4	0xbd8d76ef	-0.069074504
5	0xbc2e1ef3	-0.010627496
6	0x3bb111ca	0.005403732
7	0xbe07007e	-0.13183782
8	0xbdf72e00	-0.12069321
9	0xbc6d477a	-0.014482373
10	0x3d96a938	0.07356495
11	0x3cf593ed	0.029977763
12	0xbdfd40cc	-0.12365875
13	0x3ce3c229	0.027802544
14	0x3e31bd8a	0.1735746
15	0xbdf94d5c	-0.12172958
16	0x3d8be475	0.06830684
17	0x3d1b37ef	0.03789514
18	0x3d447107	0.047959354
19	0xbd851672	-0.06498422
20	0xbe00dd8a	-0.1258451
21	0xbc9d4fc3	-0.019203072
22	0xbda1048a	-0.07862194
23	0xbe454be2	-0.19267228
24	0xbe06aa42	-0.13150886
25	0xbd9a228f	-0.07526123
26	0x3d73b689	0.05950025
27	0xbc4fe767	-0.012689448
28	0xbdbfa73c	-0.09358069
29	0x3dbc6f14	0.09200874
30	0x3e58b8cf	0.21164249
31	0x3d5f45aa	0.054509796
32	0xbe53ea8c	-0.20694941
33	0xbe1c2259	-0.15247478
34	0xba472e45	-0.0007598142
35	0xbdd1cad8	-0.102437675
36	0xbe092833	-0.13394241
37	0xbe04d590	-0.12972093
38	0x3d970cb4	0.0737547
39	0xbdb8ff81	-0.090331085
40	0xbdce5102	-0.10074045
41	0x3a5cb827	0.0008419775
42	0xbdca7c0d	-0.09886942
43	0x3dd0daad	0.10197959
44	0xbdc81294	-0.097691685
45	0xbc894279	-0.01675533
46	0xbd5b3f66	-0.05352726
47	0x3e0a944e	0.13533136
48	0xbddb817b	-0.10718056
49	0xbdf13675	-0.11777965
50	0x3b894726	0.0041893898
51	0x3cac9388	0.021066442
52	0xbe1daeb7	-0.1539868
53	0xbd2b944a	-0.041889466
54	0x3c19d5f5	0.00938939
55	0xbe05fb3d	-0.13084121
56	0xbd9e95af	-0.07743394
57	0xbc952b61	-0.018209161
58	0xbda73d5d	-0.08166001
59	0xbe05df05	-0.13073356
60	0x3dc0a0f4	0.09405699
61	0x3def4f66	0.11685066
62	0x3dc03c0d	0.09386454
63	0xbe023b50	-0.12717938
64	0x3cea8b12	0.028630767
65	0x3daa473f	0.0831437
66	0xbd814e46	-0.063137576
67	0xbe2764cd	-0.16347046
68	0xbccaf28d	-0.02477386
69	0xbe27de2f	-0.1639335
70	0x3de3d95a	0.11125441
71	0xbe0ab418	-0.13545263
72	0xbd2ccf0b	-0.04218964
73	0x3e36b392	0.17841938
74	0xbc8e7e92	-0.017394338
75	0x3d2a96d1	0.041647736
76	0xba419988	-0.00073852437
77	0x3c623af6	0.013808003
78	0xbdad20ae	-0.08453499
79	0xbd06a71e	-0.03287422
80	0x3d8666a5	0.06562547
81	0x3d6914aa	0.056904472
82	0x3ca256be	0.019816753
83	0xbd00e071	-0.031464044
84	0x3cc005a0	0.023440182
85	0x3ce5250d	0.027971769
86	0x3d9097eb	0.07060226
87	0x3e2990de	0.16559169
88	0x3cbdad47	0.023153914
89	0xbdca6880	-0.09883213
90	0xbdd6a671	-0.10480965
91	0xbd6f30e4	-0.058396235
92	0x3dcc7636	0.099834844
93	0x3dcea923	0.10090854
94	0xbe1ba461	-0.15199424
95	0xbddf4917	-0.10902613
96	0xbe3ac487	-0.18239032
97	0x3db18f56	0.08669917
98	0xbe0ca9cd	-0.13736649
99	0x3ce670fa	0.028130043
100	0xbe0f7c7c	-0.14012331
101	0xbd8e5497	-0.06949728
102	0xbe132322	-0.14368871
103	0x3de1c1b0	0.11023271
104	0x3d9a6b21	0.075399645
105	0x3e3c77dd	0.18405099
106	0x3d47df1e	0.048796766
107	0x3d9afd7b	0.07567879
108	0xbd0c5cdd	-0.03426825
109	0xbd9d86fa	-0.0769176
110	0xbd13b687	-0.036062744
111	0x3e08ace5	0.13347204
112	0x3e07e478	0.13270748
113	0xbd3ef1b8	-0.04661724
114	0xbe12af0a	-0.14324585
115	0x3d5ea12a	0.054352917
116	0x3cc503f5	0.024049738
117	0xbc9b317a	-0.01894449
118	0x3b45f151	0.003020365
119	0x3da06f6d	0.07833753
120	0xbe0a4104	-0.13501364
121	0xbdc788a1	-0.09742857
122	0x3d3dcc99	0.046337698
123	0xbdaba3bd	-0.0838084
124	0x3e2fd77a	0.17172042
125	0x3c256844	0.01009566
126	0x3d7b2493	0.061314177
127	0xbb977308	-0.004621867
128	0xbd2354a5	-0.039875645
129	0xbd13feb6	-0.036131583
130	0x3c0ddc2f	0.008658453
131	0x3d863487	0.065529875
132	0x3ddac8b7	0.106828146
133	0x3db194b1	0.08670939
134	0xbe4ddc20	-0.20103502
135	0x3db9fbed	0.09081254
136	0xbe263f4b	-0.16235082
137	0xbbca23b6	-0.006168808
138	0x3bf8779f	0.0075826193
139	0x3d2955d8	0.041341633
140	0x3dc99b03	0.09844019
141	0xbcc0df10	-0.023543864
142	0xba603551	-0.00085528666
143	0xbd06cb23	-0.03290857
144	0x3d3c47a9	0.045966778
145	0x3de5566d	0.11198125
146	0x3e0153e3	0.12629656
147	0x3df2f1ba	0.11862512
148	0xbe08591b	-0.13315241
149	0x3df25c93	0.118340634
150	0xbd8380e5	-0.06421069
151	0x3e3f0e81	0.18657877
152	0x3c8f5439	0.017496215
153	0x3e134ef6	0.1438559
154	0xbe12bf32	-0.14330748
155	0x3d98e994	0.074664265
156	0x3e3267aa	0.17422357
157	0xbe09c12d	-0.13452597
158	0x3dfda025	0.12384061
159	0xbd639790	-0.055564463
160	0x3cc7f540	0.024408937
161	0x3d805937	0.062670164
162	0x3d06c0fb	0.032898884
163	0x3d22ba25	0.039728303
164	0xbcaf0eb0	-0.021369308
165	0xbdc45e83	-0.09588339
166	0xbdeaa6c7	-0.114575915
167	0x3d26fc8d	0.040768195
168	0x3dd752d1	0.10513843
169	0xbdff7688	-0.1247378
170	0xbdaa9de0	-0.083308935
171	0x3dcf205a	0.101135924
172	0x3e130491	0.1435721
173	0xbc7cca15	-0.0154290395
174	0xbc627c7e	-0.013823627
175	0x3e05c335	0.13062747
176	0x3d293dc1	0.04131866
177	0xbdb6314d	-0.08896122
178	0x3d070012	0.03295905
179	0x3d07c7e3	0.03314961
180	0xbde8c809	-0.11366279
181	0x3b766eef	0.0037602743
182	0xbe0c7923	-0.13718085
183	0xbde812c8	-0.11331707
184	0xbd0b0685	-0.033941764
185	0xbcce4a93	-0.025182044
186	0x3daf2b88	0.08553225
187	0x3dc641df	0.09680533
188	0xbdb5e17c	-0.08880898
189	0xbcc8e4b9	-0.024523126
190	0x3e1d555a	0.1536459
191	0xbc7f7dde	-0.015593974
192	0x3dc926c3	0.09821846
193	0xbe01f1e2	-0.12689927
194	0xbdded09c	-0.10879633
195	0xbe12c333	-0.14332275
196	0xbcd0c99a	-0.025486756
197	0xbda78437	-0.08179515
198	0x3b579203	0.0032893426
199	0xbd9f1ef3	-0.07769575
200	0xbd8646ce	-0.06556474
201	0x3e302d22	0.17204717
202	0x3c49376e	0.012281282
203	0xbc0f621c	-0.008751418
204	0xbe076a64	-0.13224179
205	0xba1a01de	-0.0005874912
206	0xbd832dbd	-0.06405208
207	0x3c932129	0.017960148
208	0x3c47a683	0.012185696
209	0xbdac1928	-0.08403236
210	0x3e2505d8	0.1611551
211	0xbdb79546	-0.089640185
212	0xbe20e8ca	-0.15713802
213	0x3defc7f1	0.11708058
214	0xbd674cc6	-0.0564697
215	0xbda1979a	-0.07890244
216	0xbe04c650	-0.12966275
217	0xbdd0bab9	-0.101918645
218	0xbdedf48a	-0.11618908
219	0x3d9219d7	0.07133835
220	0x3e171ef9	0.14757909
221	0xbd496de3	-0.04917706
222	0x3e6e3426	0.2326208
223	0x3e5aa283	0.21351056
224	0x3d665c3e	0.056240313
225	0xbd8f713b	-0.07004019
226	0xbe187e8d	-0.14892025
227	0x3c9cc5e8	0.019137338
228	0x3e0c59c1	0.13706113
229	0xbcab8349	-0.020936625
230	0xbd87a24a	-0.06622751
231	0x3d6b9253	0.057512593
232	0xba1e071e	-0.0006028282
233	0x3d9f34b3	0.077737235
234	0x3d7d29d4	0.06180747
235	0x3dba2c37	0.090904646
236	0x3e10356f	0.14082883
237	0xbd58394c	-0.052789018
238	0x3df6334d	0.120215036
239	0xbdcc9b9e	-0.09990619
240	0x3e19f326	0.1503416
241	0x3ddbe526	0.10737066
242	0xbd0ad7f3	-0.03389735
243	0x3df64212	0.12024321
244	0xbd8cf098	-0.06881827
245	0x3c722aaf	0.014780684
246	0x3c15608d	0.009117258
247	0x3e23a240	0.15979862
248	0x3e1dcf4f	0.15411113
249	0xbe008fb0	-0.12554812
250	0x3ad4f3fd	0.001624703
251	0x3dc39d80	0.09551525
252	0x3e0524da	0.13002339
253	0xbdfe75f5	-0.12424842
254	0x3e070045	0.13183697
255	0x3e267d65	0.16258772

sequential_13/conv2d_41/Conv2D f4 [64, 3, 3, 64]
0	0xbdb8c8bc	-0.09022662
1	0xbca17437	-0.019708736
2	0xbe185e2e	-0.14879677
3	0x3de39cc9	0.11113889
4	0xbdedf561	-0.11619068
5	0xbdd72025	-0.10504178
6	0xbe6b2226	-0.22962245
7	0xbe7fcdc4	-0.24980837
8	0xbe604e10	-0.21904778
9	0x3d896cc3	0.06710198
10	0xbd8689ed	-0.06569276
11	0xbdc3f446	-0.09568076
12	0x3d558e7e	0.052137844
13	0xbe5198d1	-0.20468451
14	0x3ce828f6	0.028339844
15	0xbdf0aee2	-0.11752106
16	0xbcdc3d45	-0.026884684
17	0xbdd1b742	-0.10240032
18	0xbe18161e	-0.14852187
19	0xbbfb529d	-0.0076697604
20	0x3e2926e3	0.1651874
21	0xbe2b6dc4	-0.16741091
22	0x3dc16d81	0.09444714
23	0x3c0fa2bd	0.008766827
24	0xbbfc554d	-0.0077005983
25	0x3bf27fce	0.0074004894
26	0xbbd2618d	-0.0064203204
27	0x3cc003b3	0.023439264
28	0xbd2237ec	-0.039604113
29	0xbd07c529	-0.03314701
30	0xbe645428	-0.22297728
31	0xbc2835d6	-0.010266742
32	0x3d440d62	0.047864325
33	0xbe16178a	-0.14657417
34	0x3d6fcf0b	0.05854706
35	0x3d62f43f	0.055408712
36	0xbd6951a5	-0.056962628
37	0xbbf64559	-0.007515591
38	0x3ccd5ead	0.025069559
39	0xbe312059	-0.17297496
40	0x3ddf6588	0.109080374
41	0x3d552409	0.05203632
42	0xbd587a7c	-0.052851185
43	0xbd441220	-0.047868848
44	0xbe32a1c4	-0.17444521
45	0x3cfcbdc8	0.030852214
46	0xbcffc7b7	-0.031223161
47	0xbd461545	-0.048360128
48	0x3ded3a96	0.1158344
49	0xbb6743c6	-0.00352882
50	0x3e070642	0.13185981
51	0x3df4b55a	0.119486526
52	0x3de5bece	0.11218034
53	0xbd775f2e	-0.060393505
54	0xbdb7ca11	-0.08974088
55	0xbbc1089a	-0.005890918
56	0xbdbc8fa9	-0.092070885
57	0xbdb73685	-0.08945946
58	0xbe09ec7d	-0.1346912
59	0x3d71d21e	0.059038274
60	0xbd8ba312	-0.068182126
61	0xbe19903a	-0.14996424
62	0x3e540c98	0.20707929
63	0xbc78a4bf	-0.015175997
64	0x3d8c9cd7	0.06865852
65	0x3c1d705d	0.009609309
66	0x3d77f5c1	0.060537104
67	0xbc6f2719	-0.014596724
68	0xbd1c4c3f	-0.03815865
69	0xbcfa4af2	-0.030553315
70	0x3dcd2ffa	0.100189164
71	0x3deb418c	0.114871114
72	0xbdf84613	-0.121227406
73	0x3e236b0e	0.15958807
74	0x3df9d3c8	0.12198597
75	0xbddc7b5e	-0.10765718
76	0x3ddb06e2	0.10694672
77	0x3e028db0	0.12749362
78	0x3d5819a7	0.05275884
79	0xbdddd9a7	-0.108325295
80	0x3d8680d5	0.065675415
81	0x3c90814f	0.017639784
82	0x3c109919	0.008825564
83	0xbd62f201	-0.055406574
84	0xbd466dc4	-0.048444524
85	0x3d1cf892	0.038322993
86	0xbdb5578f	-0.08854591
87	0xbd4e56a7	-0.050375607
88	0xbe192865	-0.14956816
89	0x3d912720	0.070875406
90	0x3cf1099f	0.029423533
91	0x3c686137	0.014183334
92	0x3cd513a7	0.026010348
93	0xbcc8540b	-0.024454137
94	0xbd47af35	-0.048751075
95	0x3e553141	0.2081957
96	0x3d370e69	0.044691477
97	0xbdb2f264	-0.087376386
98	0xbcaefc54	-0.021360554
99	0xbd2e5b46	-0.042567514
100	0xbaacad27	-0.0013174162
101	0xbd3c4289	-0.04596189
102	0xbcc25d15	-0.023726026
103	0x3d47e89b	0.048805814
104	0xbdff0c83	-0.12453558
105	0xbe07ac42	-0.13249305
106	0xbdbdb5b1	-0.092631705
107	0x3d9b1e7c	0.07574174
108	0xbe72ace1	-0.2369876
109	0xbdf24ed7	-0.11831444
110	0xbe1c6096	-0.1527122
111	0xbdee7a30	-0.11644399
112	0xbdcd7357	-0.10031765
113	0xbe815480	-0.2525978
114	0x3dc31124	0.09524754
115	0x3e00c490	0.12574983
116	0x3d9b94c6	0.07596736
117	0xbcecd0dc	-0.028908186
118	0xbd073fec	-0.033019945
119	0x3d0ae085	0.033905525
120	0x3c858ab9	0.0163015
121	0x3d302435	0.04300328
122	0xbd135d6d	-0.03597777
123	0x3d8113cd	0.06302605
124	0xbd9d6b8c	-0.076865286
125	0x3be516ce	0.006991244
126	0x3db3bf7a	0.08776756
127	0x3dbca0c3	0.0921035
128	0x3d615ae9	0.05501834
129	0x3d5dea6e	0.054178648
130	0xbd811e9b	-0.06304666
131	0xbd805c20	-0.062675714
132	0x3c4c6bd2	0.012476878
133	0xbd99613d	-0.0748925
134	0x3c594c36	0.013262799
135	0x3e739f75	0.23791297
136	0x3d77f3a0	0.060535073
137	0xbab0d1fd	-0.0013490316
138	0x3db9c863	0.09071424
139	0xbcd2f6b4	-0.025752403
140	0xbda24ea3	-0.07925155
141	0x3d1acd4d	0.037793446
142	0x3c445f20	0.01198557
143	0xbdb757f0	-0.089523196
144	0xbd67fefe	-0.056639664
145	0x3b115555	0.0022176106
146	0xbe4985cd	-0.19679947
147	0xbd8395f7	-0.06425088
148	0xbda7380c	-0.08164987
149	0x3c30ad0f	0.010783448
150	0x3db65e67	0.089047246
151	0x3d413140	0.04716611
152	0xbdaa6a04	-0.08321002
153	0xbe13ba88	-0.14426625
154	0xbd214636	-0.0393736
155	0xbd66c954	-0.056344345
156	0xbd36da74	-0.044641927
157	0xbd322e79	-0.04350135
158	0x3e2f6019	0.17126502
159	0xbe3b1b35	-0.18272097
160	0x3d101f72	0.03518624
161	0x3dcf6c8b	0.10128125
162	0xbdc72afe	-0.09724997
163	0xbbae661b	-0.0053222305
164	0x3e194abe	0.14969918
165	0xbdcfeb77	-0.10152333
166	0xbdb99a13	-0.090625905
167	0x3d3b880a	0.045784034
168	0xbd670619	-0.0564023
169	0xbd742d08	-0.059613258
170	0xbc328ce7	-0.010897852
171	0x3d0f7789	0.035026107
172	0x3c5b783c	0.013395365
173	0xbcd4d516	-0.025980514
174	0xbc7e6e9a	-0.015529299
175	0x3e15215b	0.14563505
176	0xbda6c37d	-0.08142755
177	0xbe23da8d	-0.1600134
178	0xbd04aef5	-0.032393415
179	0x3d8b8067	0.068116
180	0xbc0c1e2a	-0.008552114
181	0x3d98a44d	0.07453213
182	0xbda9a977	-0.08284276
183	0xbc739853	-0.01486786
184	0xbc1e845c	-0.009675112
185	0xbdae39d6	-0.08507125
186	0xbd566557	-0.05234274
187	0x3d6f7518	0.05846128
188	0xbda09947	-0.07841735
189	0xbd244342	-0.040103205
190	0xbdeb8eb4	-0.11501828
191	0x3d3ca4f8	0.046055764
192	0xbd171e66	-0.036894225
193	0xbd60ea10	-0.05491072
194	0xbd4971da	-0.049180843
195	0x3baba17c	0.0052377563
196	0x3de79721	0.113081224
197	0xbcafa790	-0.021442205
198	0xbd83676a	-0.06416209
199	0xbd7a43be	-0.06109976
200	0x3d385ca6	0.04501023
201	0xbde585c1	-0.11207152
202	0xbd72595a	-0.059167244
203	0xbd93fa10	-0.0722543
204	0x3d5cbde4	0.05389203
205	0xbb86209a	-0.004093242
206	0xbd5752ea	-0.052569307
207	0xbda07677	-0.078350954
208	0x3e1639c8	0.1467048
209	0x3d97438f	0.07385933
210	0x3e884721	0.26616767
211	0xbdd7766a	-0.105206326
212	0x3db9a8a9	0.090653725
213	0x3d54fbb0	0.05199784
214	0x3e201a4e	0.15635034
215	0x3d62c788	0.05536607
216	0xbd1c3e27	-0.03814521
217	0x3d89ee12	0.067348614
218	0x3d42e44c	0.047581002
219	0xbe3076d9	-0.17232837
220	0x3d3e1cda	0.046414234
221	0x3d97a2cf	0.074041
222	0xbeac3eb5	-0.33641592
223	0xbe263140	-0.16229725
224	0x3c15c60b	0.009141455
225	0x3a581dbe	0.0008244178
226	0xbd8383b3	-0.06421604
227	0xbd4be176	-0.049775563
228	0xbd15b669	-0.036550913
229	0xbc7fbf79	-0.0156096155
230	0x3d8fea13	0.07027068
231	0x3d321f28	0.043486744
232	0x3e9079cb	0.2821792
233	0xbdb15348	-0.08658463
234	0x3da0b072	0.07846154
235	0x3dab9dea	0.08379729
236	0x3e0c1ece	0.13683626
237	0x3dbf107d	0.09329317
238	0xbe57708e	-0.2103903
239	0x3d6fa9cc	0.05851154
240	0x3cc928cd	0.024555588
241	0x3e86fd57	0.26365158
242	0x3e36f528	0.17866957
243	0xbe134679	-0.14382352
244	0xbdc919c8	-0.098193705
245	0xbc7f70d5	-0.015590866
246	0x3b5e7921	0.003394671
247	0x3dbc64fa	0.09198947
248	0x3d480b5b	0.048838954
249	0xbe5be8ae	-0.21475479
250	0x3ddceee4	0.10787752
251	0xbcd4067f	-0.025882004
252	0xbc8a0bfd	-0.01685142
253	0xbd932a0f	-0.071857564
254	0xbd0f2f2b	-0.034957092
255	0x3dc7db3f	0.09758615
