Source Code/Master_Application/app/src/main/assets/final_model_0.tflite (tflite, 256988 bytes, 10 tensors)

sequential_10/dense_21/BiasAdd/ReadVariableOp f4 [10]
000000 9b 82 db 3e 0b bb 8a 3e 24 bf 7a 3e 96 3c 02 bf
       0.42873082 0.27095827 0.24486977 -0.50873697
000010 e3 b7 ea be 97 e8 8d 3e 8f fd d0 3c af 2f e2 be
       -0.4584342 0.27716514 0.025511531 -0.44177005
000020 85 55 82 3e 2a 26 be bd
       0.2545587 -0.09284623

sequential_10/dense_20/BiasAdd/ReadVariableOp f4 [100]
000000 3f d0 62 3e 19 20 31 bc 4b 5a 74 3d 54 d6 37 3e
       0.22149752 -0.010810875 0.059656423 0.17952853
000010 39 28 3e 3e fd a0 9c 3e c3 e1 3a bc 2b cf c4 3d
       0.18570031 0.30591574 -0.011406365 0.09609827
000020 f2 4d 29 3e 8b b6 3b 3e 73 da 14 3e 99 e9 8d bc
       0.1653364 0.18331353 0.14536457 -0.017323302
000030 78 2b bc bb e4 61 8f 3d fa 70 f3 3e 80 7e 16 bd
       -0.0057424866 0.07001093 0.47547132 -0.036741734
000040 17 fa 5a 3c 69 cc b7 3e 74 c8 36 bc 9f de 12 3a
       0.01336529 0.3589814 -0.01115619 0.0005602631
000050 ca c0 ad 3d 8a 34 31 3e c8 8d 81 bd d3 90 df 3d
       0.08484037 0.17305198 -0.06325871 0.10916295
000060 4b 71 f7 bc de 3e f1 3c c7 2e 9c 3d bc 3d ae bc
       -0.03020539 0.029448923 0.076261096 -0.021269672
000070 62 12 da 3d 9c 65 cb 3d 86 a7 01 bb 2b 20 b1 bc
       0.106480375 0.0993149 -0.001978369 -0.021621784
000080 c9 b8 14 be 7f c2 31 3e 9b fc 11 3e e3 1d 6e 3c
       -0.14523615 0.1735935 0.14256518 0.014533493
000090 86 e0 2b bc 40 fc 6c bd 37 6b 1b 3e ce 65 44 3e
       -0.010490542 -0.05785775 0.15177618 0.1917946
0000a0 36 66 2f bd 93 3d cc bc d8 c5 bc 3e b5 83 0e be
       -0.042822085 -0.024931705 0.36869693 -0.1391743
0000b0 c8 e7 cf 3d 3f e7 62 3e 3f 21 a8 3c 49 41 18 3d
       0.10151631 0.22158526 0.020523665 0.037171636
0000c0 4d 04 b6 3d 0d 8d 62 3e 0c f5 c8 3a 8e 72 33 3b
       0.08887539 0.22124119 0.0015331819 0.0027381512
0000d0 d1 12 a8 3e dd 55 21 3e 44 0c 24 bd 1c aa 13 bc
       0.32826856 0.1575541 -0.04005076 -0.009012725
0000e0 b9 01 99 3d e0 4a 86 3d 94 32 dc bd 38 61 c8 bd
       0.07471032 0.0655725 -0.107518345 -0.09784168
0000f0 c4 fb ff bc 5e b1 62 bd 0b 98 e3 3b 8c 75 e2 bc
       -0.03124798 -0.05534493 0.006945615 -0.027643941
000100 57 2c a5 bd 47 af 63 bc 07 88 ae 3c 41 b0 f2 bc
       -0.08065098 -0.01389677 0.021305097 -0.02962506
000110 ef ff 63 3e 18 d2 a8 3d f5 02 01 3e 5f 73 56 3d
       0.222656 0.08243197 0.12598784 0.05235612
000120 31 b6 60 bc 48 d8 be 3e 90 78 3d 3d cd c5 68 bd
       -0.013715313 0.37274384 0.046257555 -0.056829263
000130 53 3f 20 3d 91 58 80 bd 40 28 02 be 29 31 28 bd
       0.03912289 -0.06266893 -0.12710667 -0.041062508
000140 f6 80 47 3e 18 8a 0c 3d e4 9b 34 bd aa 70 25 bd
       0.19482788 0.034311384 -0.04409398 -0.040390648
000150 53 f2 83 3e f2 bd 3c 3e 50 ac d2 3d 05 c9 7d 3e
       0.25770816 0.18431833 0.10286772 0.24783714
000160 4a 76 94 bd 6a 48 e4 3d 83 65 6e bd 26 26 6f bb
       -0.07249124 0.111466244 -0.058202278 -0.0036491244
000170 ad 47 de 3d 18 99 9a bd c1 b9 02 3c 4f fd 1a bd
       0.10853515 -0.075487316 0.0079788575 -0.03783923
000180 07 2c 0b be 3d be 1b bd a0 61 98 bc 3c 86 5f 3c
       -0.13591014 -0.038023222 -0.018601239 0.013642844

sequential_10/conv2d_32/BiasAdd/ReadVariableOp f4 [64]
000000 62 21 28 3e dc ce 64 3e 51 96 c4 bd 05 a4 e2 3d
       0.16418985 0.22344536 -0.09598983 0.110664405
000010 f5 e9 b5 bc 7e 1b cb 3b 64 07 fb 3d 46 fb cb bc
       -0.022206286 0.0061983457 0.12257269 -0.02490009
000020 2d 02 4a be 7d ea bc bb 00 d2 65 bd e8 1d b1 3a
       -0.19727392 -0.005765258 -0.056108475 0.0013512941
000030 94 ee e1 bd 19 26 07 3e 8b e5 cf bd 45 8b d7 3d
       -0.11031833 0.13198127 -0.10151204 0.105246104
000040 be 87 7f 3d 27 3e b5 bd 84 31 94 bd 02 d0 a2 bd
       0.062385313 -0.08849745 -0.07236007 -0.079498306
000050 fc e6 3c bd b8 da f6 3b 9f d8 aa bd 5e a5 ff 3e
       -0.04611872 0.0075333975 -0.083420984 0.49930853
000060 dd 81 16 be f2 fd 6b be f9 65 5c 3e b9 cb f4 3d
       -0.14697976 -0.23046091 0.21523274 0.119529195
000070 34 ad 86 3d 06 cc f0 3d 66 f6 1d 3e 33 eb d6 3e
       0.065760046 0.117576644 0.15426025 0.41976318
000080 29 f6 39 bd 7f ea 66 be 1e ed 24 bd fe 75 18 3e
       -0.045400772 -0.2255039 -0.040265195 0.1488876
000090 72 36 1e bd 73 81 93 bd 9a b1 cc 3c 03 e9 a3 bc
       -0.03862614 -0.07202425 0.02498703 -0.02000857
0000a0 c1 7c 3c bd 1e 67 47 3c 50 a4 56 bd 30 4e 2f bc
       -0.046017412 0.012170581 -0.052402794 -0.010699794
0000b0 6a 0b ae 3c f5 d7 08 3e fa 10 d8 bd 53 9c 5c be
       0.021245677 0.13363631 -0.10550113 -0.21544008
0000c0 93 6f 2d bf c3 4b b6 3d 4c ea 2d be 0f 64 59 3d
       -0.67748374 0.08901169 -0.16983908 0.05307394
0000d0 7b 00 c1 bd 85 64 29 be ee 8f 31 be 75 46 22 3d
       -0.0942392 -0.16542251 -0.17340061 0.039617974
0000e0 67 6e 16 3c 04 5d 81 bd f6 3d 7a be b4 37 2b 3e
       0.009181595 -0.063165694 -0.24437699 0.16720468
0000f0 e6 d5 72 be b2 72 aa 3d 9f cc 9b bd cc 04 11 3e
       -0.23714408 0.08322658 -0.07607388 0.14161986

sequential_10/conv2d_31/BiasAdd/ReadVariableOp f4 [64]
000000 7c 1f d2 bd 3e 1f 42 bd 58 74 0d bf e1 2e 8c 3e
       -0.102599114 -0.047393076 -0.5525565 0.27379516
000010 08 38 63 bf 32 25 ef 3d 2e ed cc bc 80 88 d1 bd
       -0.8875737 0.11677016 -0.02501544 -0.102311134
000020 95 2d b2 bd 73 e3 85 3c fa ea 64 3e 22 69 b3 bc
       -0.087001 0.016343808 0.22355261 -0.021900717
000030 c2 4b 23 3d f1 c1 e2 bd be 6b e0 bd 8b 23 9f bd
       0.03986717 -0.11072148 -0.1095805 -0.07770451
000040 88 7a a1 bd 10 5f a3 bd ae e1 0c 3c cb db 63 3e
       -0.07884699 -0.07977116 0.008598728 0.22251813
000050 62 66 85 3c 99 6f 1e 3e 6f 92 cd be b4 5b 52 bd
       0.016284171 0.15472259 -0.40150782 -0.051356986
000060 97 9d d3 3c c7 46 b2 be 07 c0 11 3d ef fe eb be
       0.02583198 -0.34819624 0.035583522 -0.46092936
000070 e8 13 10 3e e6 a7 3c 3d c4 1b 3d bd e3 7a 8c 3d
       0.14070094 0.046058558 -0.046169057 0.06859376
000080 f2 70 14 3e 37 d8 85 bd f5 a3 44 3e 46 94 03 3d
       0.1449621 -0.0653538 0.1920317 0.032123826
000090 36 06 72 be 62 17 72 3e 1e 54 c2 bc 1d 97 14 be
       -0.23635182 0.23641732 -0.02372175 -0.1451077
0000a0 d2 04 46 3d 0d f1 94 bd 22 ab 6d bd ee 4e 12 be
       0.04834444 -0.07272539 -0.058024533 -0.14287922
0000b0 61 88 aa bd 93 e8 d0 bd e0 26 30 bd 42 75 db bd
       -0.083267935 -0.1020061 -0.043005824 -0.107157245
0000c0 cf cd e3 bc 6a ce ac bd 58 8f d3 3c f8 8d e4 bb
       -0.027808098 -0.08437808 0.025825188 -0.006974932
0000d0 27 5a 08 bb 6b 08 a8 bd 4c 56 38 3d da 20 75 bc
       -0.0020805688 -0.082047306 0.045004174 -0.014961446
0000e0 a1 ab c4 be 03 df 4c bd 14 bd 14 3d 79 4d 5a 3d
       -0.38412192 -0.050017368 0.03631313 0.05329654
0000f0 b3 1a 5c 3d 54 e2 e9 be b0 92 0c bc a2 35 58 bd
       0.0537364 -0.45680487 -0.008579895 -0.052785523

sequential_10/conv2d_30/BiasAdd/ReadVariableOp f4 [32]
000000 cb a9 49 be 3f 82 33 3d 4e c2 2f bd 31 33 1a bc
       -0.19693677 0.043825384 -0.042909913 -0.009411619
000010 32 60 7c bd c4 62 96 3c a4 79 40 bc 7a b0 89 bd
       -0.061615176 0.018357642 -0.011747751 -0.06723113
000020 64 42 f4 bc 03 8b 01 3d 4d 25 8b bc fb 46 6b bd
       -0.029816814 0.031626713 -0.01698556 -0.05744074
000030 fa b8 a7 bc 2d d4 fe bc 6b a2 f5 3c a3 21 16 bf
       -0.020473946 -0.031107033 0.029984673 -0.58645076
000040 28 bf 28 bd 36 70 39 bc 56 5d 23 be 6e a8 8b bf
       -0.041197926 -0.011318257 -0.15953574 -1.0910776
000050 0b 00 ed ba e0 39 31 bf c5 43 cd 3b 66 c7 7a be
       -0.0018081678 -0.69228935 0.0062641823 -0.24490127
000060 0b 57 65 bc 14 c6 47 bc 1a 5b 1f bd d8 73 12 bc
       -0.013997803 -0.012193222 -0.03890524 -0.008938752
000070 45 0b 7b bc a5 44 87 bc 92 20 00 bd 01 fa 04 bd
       -0.015322511 -0.016512224 -0.03128106 -0.032464985

sequential_10/dense_20/MatMul f4 [100, 64]
000000 a8 2c 6e 3e b0 cf c0 3d 3c c6 3c 3e b0 4b d8 3d
       0.23259223 0.09414613 0.18434995 0.10561311
000010 7b 88 8c be e4 b8 cc be 01 69 92 3e 84 5e f7 bd
       -0.27447876 -0.3998481 0.28595737 -0.12078574
000020 90 1a 4b be 5c 82 db 3e 00 2f 13 be 02 0a b2 b8
       -0.19834352 0.42872894 -0.14373398 -8.4895655e-05
000030 c3 1f be bd b7 28 73 3e d9 2c 04 3e 7f 2c db bd
       -0.09283402 0.23746 0.12907733 -0.10701846
000040 7c a9 a4 be 96 c3 28 be ce 27 45 3c 3a 5b 03 3e
       -0.32160556 -0.1648086 0.012033416 0.12827769
000050 fe 74 93 3e 45 98 5e be 27 91 c8 bd e7 2f a6 3e
       0.28800195 -0.21737774 -0.097933106 0.32458422
000060 03 9c 0b 3e cb ff b9 be e6 f0 b6 3d f2 e6 5e be
       0.13633732 -0.36327967 0.089326665 -0.21767786
000070 cd 1d 8b be 03 01 19 be 16 02 e0 be 21 b8 9c 3e
       -0.27171174 -0.14941792 -0.4375159 0.3060923
000080 dc ce a3 bd 84 b3 89 bd 32 29 25 3e d1 5f 87 3e
       -0.0799844 -0.06723693 0.16128996 0.2644029
000090 89 b6 f0 bd 1f d1 94 be f3 8d 01 be 4a 2e d3 bd
       -0.11753566 -0.29065797 -0.12651806 -0.10311563
0000a0 7b 37 43 be 21 e1 c3 bd a4 2f 23 3e 5c fc 55 3e
       -0.19064133 -0.09564424 0.15936142 0.20897049
0000b0 49 e2 01 be 81 47 41 3d 8c 0c 8b 3e e1 f9 b2 bd
       -0.12683977 0.047187332 0.2715801 -0.08739067
0000c0 1d 3b 35 bd ac ee 00 be 0c 99 1e be fe 59 a4 bd
       -0.044245828 -0.12591046 -0.1548807 -0.08024977
0000d0 39 cd 67 bd b5 57 a7 3e f0 54 a6 3c 81 b9 80 3e
       -0.0565922 0.32684103 0.020304173 0.25141528
0000e0 4a 07 3d 3c 08 56 75 be 9a 03 e8 be dd 27 9b 3d
       0.011537382 -0.239586 -0.45315248 0.07575963
0000f0 b1 e6 d2 bd 92 65 e0 3d d3 5a 80 3d 6f 49 cf bd
       -0.10297907 0.10956873 0.06267323 -0.10121428
000100 be 66 20 be f5 ee 76 bd 50 58 86 bd 17 06 80 be
       -0.15664193 -0.06028648 -0.06559813 -0.25004646
000110 e1 76 19 bd c2 07 e2 bc 08 41 3b 3d 3b 80 9e 3d
       -0.037466887 -0.02759159 0.045716316 0.07739302
000120 82 e2 6c be 24 f7 9a 3e 8c b5 ff 3d ea 6d e2 bc
       -0.23133281 0.30266678 0.12485799 -0.027640302
000130 43 28 ee bd 79 a6 3a 3d 01 dc 74 3e 1f d3 61 be
       -0.11628773 0.045568917 0.2391205 -0.22053193
000140 da bd a3 bd 26 c1 75 be 8e aa 80 3e 60 c4 82 be
       -0.07995196 -0.23999462 0.25130123 -0.25540447
000150 a4 c0 24 3d fa 9a 28 bd 15 38 87 bd 46 32 47 3e
       0.04022278 -0.041163422 -0.06602494 0.19452772
000160 e4 19 61 be 35 ba a3 be 85 c3 33 3e 49 c5 86 bd
       -0.21982533 -0.31978002 0.17555054 -0.06580598
000170 ff ef 6e bd ce c6 0a be b5 04 b5 be 2c 39 3a 3e
       -0.058334347 -0.135524 -0.35355154 0.18185872
000180 bf 5e 97 be 79 30 83 3e 36 37 20 3e 61 22 54 be
       -0.29564473 0.2562292 0.15646061 -0.2071624
000190 23 34 9c be 54 fb d7 bc d6 d0 ee 3d 99 30 0c be
       -0.30508527 -0.02636496 0.11660926 -0.13690414
0001a0 5f af 58 3e 26 78 6d be 68 ee 81 be 64 ad 4f 3e
       0.21160649 -0.23190364 -0.25377202 0.20280987
0001b0 89 ac 33 3e 66 dc 53 be 0d 6b 9b 3d c6 d8 35 be
       0.17546286 -0.20689544 0.07588778 -0.17758474
0001c0 ed 15 c1 3e 9c 50 63 ba b7 28 85 3e 46 10 0f be
       0.3771204 -0.00086713745 0.26007625 -0.13971052
0001d0 fa ea 87 be 02 07 f3 3d 5e fc 9d 3d e8 90 05 3e
       -0.2654646 0.11866571 0.07714151 0.13043559
0001e0 76 b3 1e 3e ef cd cc 3d 1a 95 e8 be a7 72 c9 3d
       0.15498146 0.10000216 -0.45426255 0.09836321
0001f0 97 e4 89 bd 55 e5 cf 3c 86 86 89 3e ad 5b 7f be
       -0.06733053 0.025377909 0.26860446 -0.24937315
000200 b5 9b 09 be 03 54 0e be ad b3 35 3e 2c ba 44 be
       -0.13438304 -0.13899235 0.17744322 -0.19211644
000210 2c 88 9b 3d 8a 2f 56 be a9 78 2b 3e 00 b3 71 be
       0.07594332 -0.20916572 0.16745247 -0.2360344
000220 7f f9 65 3e c5 1d fb 3c 3f 39 42 3e 47 85 a0 be
       0.22458456 0.030653844 0.1896715 -0.31351683
000230 51 54 2a be d4 a0 c9 bd fc e6 59 bc d4 bd c7 3e
       -0.16633727 -0.09845129 -0.0132997 0.39012015
000240 cc 6e 98 3e 0c 3b 01 be 42 dd 7c be 92 93 f9 3d
       0.2977203 -0.12620181 -0.24693778 0.1218635
000250 b3 58 9f bc 72 d0 84 be b0 e3 48 3d bb de a2 bb
       -0.019451475 -0.2594028 0.049045265 -0.004970399
000260 6d fe 66 bd e6 26 03 3e b9 91 04 be 5b 2f 83 3c
       -0.056394983 0.12807807 -0.12946214 0.016013792
000270 38 38 26 3e 2c 86 92 be 76 df fe bd e3 ac 8c 3e
       0.16232383 -0.2861799 -0.124449655 0.27475652
000280 d5 d3 6c be d4 83 89 3d b8 30 39 3e 4c f1 bb 3c
       -0.23127683 0.06714597 0.18084991 0.022942208
000290 4a 98 49 be 19 c3 b9 be 29 93 08 be 18 b0 61 3e
       -0.19687 -0.3628166 -0.13337387 0.2203983
0002a0 e7 e6 5d 3e 76 45 33 be 6d f4 d3 bd 08 46 63 3e
       0.21670114 -0.17506966 -0.10349355 0.22194684
0002b0 53 4e a2 3d 56 bb 9b 3e 84 d4 13 be 85 0d 04 be
       0.079250954 0.30416363 -0.14436537 -0.12895782
0002c0 02 74 08 bf 31 78 c0 3e 44 d4 d7 bd 7e 03 30 be
       -0.53302014 0.375917 -0.10538533 -0.17188832
0002d0 03 78 8d 3e 6c d1 a5 be 69 fb 4e be cc bf 01 be
       0.27630624 -0.3238634 -0.20213093 -0.12670821
0002e0 7f 7f de bd 88 11 a4 3e 43 f0 a3 be f2 96 9c be
       -0.10864162 0.32044625 -0.32019243 -0.30583912
0002f0 43 8b ce 3d 38 70 9b 3e 67 45 a5 3d ae 56 af 3e
       0.10085156 0.30359054 0.08069878 0.3424582
000300 3f 86 c3 bd 0c 49 03 3e d4 68 af bd f7 c7 26 be
       -0.0954709 0.12820834 -0.08564916 -0.16287218
000310 a6 af 47 bc d2 35 49 3e 2b aa 4b 3e 24 a7 e3 be
       -0.012187874 0.19649437 0.19889133 -0.44463456
000320 38 ae 90 be da 3e c3 3a dc bf 2a be e4 81 94 be
       -0.28257918 0.001489605 -0.16674751 -0.2900535
000330 dc 31 4b bc 13 aa 3a be e6 53 1a be 0e 80 3d be
       -0.012402024 -0.1822894 -0.15071067 -0.1850588
000340 4a 66 03 be 65 64 9e 3e c1 1a f7 3c 57 b0 66 be
       -0.12831989 0.3093597 0.030164124 -0.22528206
000350 a4 a5 37 3e 01 25 64 bd c8 c4 59 bc 63 6a d4 3e
       0.1793428 -0.055699352 -0.013291545 0.41487417
000360 2e 06 80 3e 15 51 08 3c 0f 99 f7 bd da e4 8e 3e
       0.25004715 0.008320113 -0.120897405 0.27908975
000370 e8 5b 1b 3d 51 ba fc 3d 09 ab af 3e 9d 2e 51 3e
       0.037929446 0.123402245 0.34310177 0.20427938
000380 f8 ef ba 3c 89 5b 4b 3e fb 83 7b 3e 2e 72 e5 bc
       0.022819504 0.19859137 0.24562065 -0.028008547
000390 ad 21 75 3e b3 72 cd 3d 4d 65 60 be 47 8c 49 be
       0.23938628 0.10031643 -0.21913643 -0.19682418
0003a0 b4 09 49 3e e9 c1 d4 3d 43 f9 d8 bd 4e 78 58 bd
       0.19632608 0.10388548 -0.10594418 -0.052849106
0003b0 ea 95 80 be 8b 50 e1 be f6 a2 14 be b7 d5 1b be
       -0.25114375 -0.44006762 -0.1451529 -0.15218244
0003c0 09 6b b8 be 5d da 68 3d 4e b2 8e 3d 78 64 69 bd
       -0.3601916 0.056848872 0.06967603 -0.05698058
0003d0 14 b5 e2 bd e4 ab ce 3d 79 12 54 3e 38 d0 02 be
       -0.11069694 0.10091379 0.20710172 -0.12774742
0003e0 76 f0 c2 bd 7c a2 d9 bc 68 87 29 be 34 6f 51 be
       -0.095185205 -0.026566736 -0.1655556 -0.20452577
0003f0 11 b5 0e 3e 2b 0e 91 3d df cd cd bd ff d1 92 3b
       0.13936259 0.070827805 -0.100490324 0.0044806

sequential_10/dense_21/MatMul f4 [10, 100]
000000 34 a4 5e be 26 1e 44 be 17 8d 6a be b4 b3 65 3e
       -0.21742326 -0.19152126 -0.22905384 0.22431833
000010 b0 10 e3 bd a6 83 aa be 64 82 e8 3d a8 ce dc 3e
       -0.11087167 -0.33303565 0.11352995 0.43126416
000020 07 24 7c 3e cd 8b eb bd 5f 03 32 3d 96 ab c1 3c
       0.24623118 -0.11501274 0.043460246 0.023641389
000030 5f de cf 3c 7b f3 72 be 40 b3 97 bd f2 85 3f be
       0.02537459 -0.23725693 -0.07407236 -0.1870344
000040 5b 83 30 3d 31 b5 d0 be 84 a3 cc 3d 1c fd 87 3d
       0.04309402 -0.40763238 0.09992126 0.06640074
000050 1c 98 6a be 01 2c 8e 3e 7c 70 4f be 87 1f 3b 3e
       -0.22909588 0.27767947 -0.20257753 0.18273745
000060 02 5d 91 bd 59 f8 70 3e d0 e8 3a 3e 79 58 a5 3e
       -0.07097818 0.23532237 0.18252873 0.32294062
000070 b6 a4 81 be ab ba 8c 3e 68 7f ab bc 49 39 59 be
       -0.25320977 0.27486166 -0.020934775 -0.21213259
000080 a0 a6 77 3e 25 81 a0 3d 99 33 4d 3e cf 33 e3 bd
       0.24184656 0.07837132 0.20039214 -0.11093866
000090 1b f1 27 3e 3b 3d 1b bc 0c 57 76 3e 75 7d 53 bd
       0.16400568 -0.009475048 0.24056643 -0.051633317
0000a0 34 1c d1 bd 04 a5 37 bd ea 82 37 be 83 a4 dc 3d
       -0.102104574 -0.044835106 -0.17921034 0.107735656
0000b0 3d f3 d1 3d 1b 05 3c 3e a0 59 d2 3e ca 1b 47 3d
       0.10251472 0.18361323 0.41084003 0.048610486
0000c0 4a 71 68 be e8 d2 c3 be 8c 20 85 3d f2 fe 73 bb
       -0.22699466 -0.38246846 0.065003484 -0.0037230817
0000d0 c8 e1 a5 be dc 8b e0 3d 0c d0 17 3e 83 b4 b1 3e
       -0.3239882 0.10964176 0.14825457 0.34708032
0000e0 95 6e ea be c9 b5 a1 be 4a 69 ce 3d 4c 11 60 be
       -0.45787492 -0.31584004 0.10078676 -0.21881598
0000f0 2a 0a 0b 3e 31 38 77 3e ad d9 be 3d 73 b9 45 3e
       0.13578096 0.24142529 0.09318862 0.19309025
000100 ce da 62 be c7 a7 29 3d 7a d0 74 be c9 61 d0 3b
       -0.2215378 0.04141977 -0.23907652 0.006359313
000110 16 04 71 3d 3a f9 14 3d c8 b0 16 3e 58 1b 93 3d
       0.058841787 0.036370493 0.14715874 0.0718295
000120 bb f9 12 3d 0b 74 21 be 63 2e 44 bd 9a e6 b7 3d
       0.035882693 -0.15766923 -0.0478958 0.08979531
000130 f3 f6 9d bd 9b 24 d4 bd 9b ee b2 be 6c 5a 54 be
       -0.077131175 -0.103585444 -0.34947667 -0.20737618
000140 0d a4 f4 be ad 2d bd bd 5b 94 3a 3d b9 fd 75 3d
       -0.4778141 -0.092372276 0.04555164 0.060056422
000150 88 83 7f 3d f3 c9 00 3e 11 cd eb bd 0f db c3 3e
       0.062381297 0.12577038 -0.11513723 0.38253066
000160 f2 c9 3c 3e 44 62 96 3e 24 2e f1 3d 1b 58 78 bd
       0.18436411 0.29371846 0.11776379 -0.0606309
000170 39 70 d5 be 7a 24 fb bc ea 1a 6a be bb c3 34 be
       -0.41687182 -0.030657042 -0.2286183 -0.1765279
000180 98 a2 d4 bd 39 51 a2 bd 3f 7e c8 be 65 03 6f 3e
       -0.10382575 -0.07925648 -0.39158818 0.23341139
000190 dd 51 15 3f 9d a3 c2 3e 4e 1b 09 be ec 31 0d 3e
       0.5832804 0.38015452 -0.13389322 0.13788575
0001a0 44 fb 0d 3f c5 b2 cc 3e 1d f7 53 be 7f 2f 7c be
       0.55461526 0.3998014 -0.20699735 -0.24627493
0001b0 4e eb 83 3e d6 bb fa 3e c9 54 ce 3e ce 62 0e 3e
       0.2576546 0.48971432 0.4029906 0.13904878
0001c0 f3 9b 61 3e ba e8 eb bc a3 f4 26 3f 99 30 9b bd
       0.22032146 -0.028797496 0.65217036 -0.07577629
0001d0 ea 7e 2d be 96 5d 59 3f 92 49 fd be ec 9b 22 3e
       -0.16942945 0.84908426 -0.49470192 0.15879792
0001e0 42 9c 7e 3e 96 16 51 be 9f 45 81 3d 9d 0f b9 3e
       0.24864295 -0.20418772 0.06312107 0.36144724
0001f0 b1 61 05 bf 06 c1 09 3b e1 91 20 be c5 e4 bd be
       -0.5210219 0.0021019592 -0.15680648 -0.370886
000200 33 37 a2 3e b4 4d 72 3d 16 ca b4 bc 8b 12 1e 3d
       0.3168274 0.059156135 -0.022069018 0.038591903
000210 b6 19 d0 be 43 cf 5f bc 9a b3 3e be 06 5c 8e be
       -0.40644616 -0.013660255 -0.186232 -0.27804583
000220 9e f0 c7 be 02 ad bd bd 3e 17 be 3b cc 33 d4 3e
       -0.39050764 -0.09261514 0.0058011105 0.41445768
000230 7e 3d f8 3d dd f3 73 be 8e 51 26 3f 12 6d af be
       0.12121104 -0.23823495 0.6496819 -0.34262902
000240 e1 52 ec be 53 75 13 bf 30 81 13 3e 53 41 34 be
       -0.46156982 -0.576009 0.1440475 -0.17603044
000250 0a 8a 6d be 92 b6 0e 3e b1 95 ac 3d cb 9f a3 be
       -0.23197189 0.13936833 0.08426989 -0.3195785
000260 41 fc 0d 3f 3e 4a 9f 3e 2a 4a 7f 3d 5d ef 11 bf
       0.55463034 0.3111133 0.062326588 -0.57005864
000270 06 88 bb 3e c7 e5 ec 3d 99 9c 78 bd 02 63 92 bc
       0.36627215 0.11567264 -0.06069622 -0.017869476
000280 9b 76 9e bd 11 bd 00 3e 26 60 42 3e 1f 80 cd 3d
       -0.07737466 0.12572123 0.1898199 0.10034203
000290 22 e7 27 3c 82 14 76 be af 6d a0 3e 09 a0 f8 3d
       0.010247977 -0.2403126 0.31333682 0.12139899
0002a0 d0 a2 d2 bd ab 3a 84 3d bc 7f d2 3c d9 44 98 3c
       -0.1028496 0.064565025 0.025695674 0.018587517
0002b0 16 49 9f bc 6e 4d d9 3e f0 50 1e 3f f5 8e 1a 3e
       -0.01944403 0.42441887 0.6184225 0.15093596
0002c0 bc 14 32 be df c7 72 3c 54 79 d2 be a6 93 8d be
       -0.17390722 0.014818161 -0.4110819 -0.2765171
0002d0 4c 85 1d 3e 10 54 2f 3c 55 5d b5 3d ce fb a6 be
       0.1538288 0.010701194 0.08855692 -0.32613987
0002e0 77 6a 85 3e 73 9b e9 bd 00 4f 09 3f a4 63 aa be
       0.2605779 -0.11406603 0.5363617 -0.33279145
0002f0 75 bb fb bc 84 2b 9f be c0 ba fc be 01 f8 41 be
       -0.030729035 -0.31087887 -0.4936123 -0.18942262
000300 e5 ad b3 be d4 1d 58 be 03 b4 4b bc a1 66 dd bd
       -0.35093608 -0.21105129 -0.012433055 -0.108105905
000310 72 ae 81 bb a7 6f 82 3d 2f 7e 8f be a5 0a 43 bd
       -0.003957563 0.06368952 -0.28025958 -0.047617573
000320 6b 7b 66 3e b6 e8 5f be 5c 0a b9 3d 09 bf 0f be
       0.22508018 -0.21866116 0.09035179 -0.14037718
000330 09 57 8c 3e 2e 9d 28 3e 70 a8 02 bc 4c 5f ed be
       0.27410153 0.1646621 -0.007974729 -0.46361768
000340 bb b7 89 bc b7 c7 5f 3d 5d 73 87 be d4 b0 ed bd
       -0.016811242 0.054633822 -0.26455203 -0.11605993
000350 6e 9c 10 be 84 04 75 3d 15 a0 be 3e 73 74 d3 3d
       -0.14122173 0.05981876 0.37231508 0.10324945
000360 1a 87 15 3e df 11 99 be 3c e2 0b bf 7c 1c 77 be
       0.14602318 -0.29896447 -0.5464208 -0.2413196
000370 73 e7 31 be ce 13 eb 3d eb 05 2e be d2 84 6d be
       -0.17373447 0.11478387 -0.16994445 -0.23195198
000380 59 ad 41 3e bb a0 15 bc 82 99 67 3e 4f 79 7a 3c
       0.18913783 -0.009132559 0.22617152 0.015287711
000390 c0 23 89 bd 85 5d b7 bc 86 82 c6 3d 4d 8b a5 bd
       -0.06696272 -0.02238346 0.09692864 -0.0808321
0003a0 00 ea 99 be 0d 64 64 3e d6 34 a1 3e bc 3c ee 3c
       -0.3006134 0.22303791 0.31485623 0.029081695
0003b0 7f 7a 6b 3c b7 b7 3f bd 86 da a5 be ea 16 ee bc
       0.014372467 -0.046806064 -0.32393283 -0.02906366
0003c0 6f 20 92 3d 52 e0 17 be 59 ba 47 3e fe d8 5e 3e
       0.071350925 -0.14831665 0.1950468 0.21762463
0003d0 c5 69 a0 be e1 14 ed 3e e6 e4 f3 be 11 c4 92 3e
       -0.31330696 0.46304992 -0.47635573 0.28665212
0003e0 7d c1 2a 3e 6f 31 a7 3e a3 7b 44 3e 28 1c 02 3d
       0.16675372 0.32654902 0.19187789 0.031765133
0003f0 45 5d 8d 3e 92 84 73 be 41 97 4e be fa 66 2f be
       0.27610222 -0.2378104 -0.20174886 -0.17129126

sequential_10/conv2d_30/Conv2D f4 [32, 3, 3, 1]
000000 ce b3 4e be 01 86 36 3d 44 08 1b 3e bb 2e 18 bf
       -0.20185778 0.04456139 0.15139872 -0.59446305
000010 d3 58 47 bf 8b d7 1e 3f 3e b2 93 3e 08 3d 63 3b
       -0.7786991 0.6204764 0.28846925 0.0034673829
000020 59 9b 85 3e 12 a9 3a bf 54 b9 5b be 0b 7b 10 3f
       0.26095083 -0.7291423 -0.21457416 0.5643775
000030 80 82 de be c9 34 ad be 98 c2 50 3f 0a 7d 3f 3f
       -0.4345894 -0.33829334 0.81546926 0.7480017
000040 22 eb 87 bf 17 27 08 bf 4b a9 b2 3e 31 56 84 3e
       -1.0618632 -0.53184646 0.34894785 0.2584701
000050 22 4e 5d 3f 11 d1 b8 be b5 e6 8d bd 37 64 76 3f
       0.86447346 -0.36097005 -0.069287695 0.96246666
000060 47 f5 d2 be 3d 37 53 bf cc 33 b6 bf b6 fe 14 bd
       -0.41202757 -0.8250616 -1.4234557 -0.036375724
000070 41 38 95 3e 61 0e f3 3e 95 58 f3 3d 43 4d e8 be
       0.2914448 0.47471908 0.1188213 -0.45371446
000080 ae c0 17 bf 5d dc 85 be 1d 47 83 3e c4 12 0b 3f
       -0.5927838 -0.26144686 0.25640193 0.5432551
000090 a1 ba 87 3e b1 52 66 3e 8c 09 20 3e d2 57 b8 3b
       0.26509574 0.22492482 0.15628642 0.0056257034
0000a0 7d 43 9c 3f 20 28 86 3e 3a 78 c4 3c c4 e1 2f bf
       1.2208096 0.26202488 0.02398311 -0.68703866
0000b0 b9 9a b6 bf 9c b3 3c 3e e0 4a 81 be fa 36 c2 3d
       -1.4265968 0.1842789 -0.25252438 0.09483142
0000c0 36 24 a4 3e eb 4f 17 be 0b 1b 86 3f ef 50 85 bd
       0.32058877 -0.1477658 1.0477003 -0.065095775
0000d0 cc 6e bf bf 6f 96 02 3f 0c e4 5f bf 36 65 4f bf
       -1.4955688 0.51010793 -0.87457347 -0.8101381
0000e0 7e 87 b3 bf ae 6d 1f be 08 48 3b 3f 5a d7 40 be
       -1.4025724 -0.15569183 0.73156786 -0.1883215
0000f0 e0 b6 ab bd 10 47 91 3e d5 86 de 3e 85 75 36 bf
       -0.0838449 0.2837453 0.43462244 -0.7127307
000100 1c 26 77 3f 1a 6c 0d 3f 6d c8 6f bf d6 87 e0 3d
       0.96542525 0.55243075 -0.936652 0.10963409
000110 60 40 fa be 06 3a 3d bf 82 db 09 bf aa b9 1c bf
       -0.4887724 -0.7391666 -0.5385057 -0.612208
000120 89 5d 24 bf 68 7c a5 be 87 33 44 3d 77 71 b6 be
       -0.64205223 -0.32321477 0.047900703 -0.35633442
000130 37 93 d1 3e fb 20 3f 3d 0b 06 ac 3d 2b 00 1d be
       0.4093263 0.046662312 0.0839959 -0.15332095
000140 73 6f 2b bf 84 f8 ce 3a f5 d7 b4 bc e8 b1 17 3e
       -0.66966933 0.0015790616 -0.022075633 0.1481396
000150 d0 a2 dc bc b9 9d 22 be d7 26 d5 bf eb 5e aa 3d
       -0.026933104 -0.15880479 -1.6652478 0.083188854
000160 14 0f ab 3d f5 1e ba 3f 88 b5 de 3e 96 51 72 3d
       0.08352485 1.4540697 0.43497872 0.059159838
000170 af a9 d1 3c 6a fa 7a bf 43 fe e3 3e c9 f0 17 bf
       0.025593607 -0.9803835 0.44529924 -0.59351784
000180 10 a4 c5 3d 98 50 dc 3f 45 a5 d0 bf ba e8 4a 3d
       0.09650433 1.7212095 -1.6300436 0.04953835
000190 91 e2 45 bf f3 cb 17 bf 8a a8 27 3e 20 ce ed bc
       -0.7729884 -0.59295577 0.16372886 -0.029028952
0001a0 cc 36 35 3f a4 e7 4e 3f 87 5f 6c bf c0 fa a1 3e
       0.7078674 0.80822206 -0.92333263 0.3163662
0001b0 0c e2 16 3f 34 95 4a bf d4 35 21 bf 9d ed 45 bf
       0.5893867 -0.79133916 -0.6297276 -0.77315694
0001c0 db 4c 44 bf 33 da 30 bf d0 cf 9b 3f 1f 71 d2 be
       -0.7667977 -0.69082946 1.2172794 -0.4110193
0001d0 4d 94 dc be 61 f5 28 3f 19 5e 50 bf 46 00 89 3f
       -0.43081895 0.6599942 -0.8139358 1.0703208
0001e0 26 e3 f4 3e 2d 01 11 bf 9a 05 34 bf 0c 09 42 bf
       0.4782955 -0.5664242 -0.7032105 -0.75795054
0001f0 0d e7 01 3e e3 80 3a bf 41 4b 6c bf 98 29 a8 3e
       0.12685795 -0.72852916 -0.9230233 0.32844234
000200 de 55 4e 3f 0e 36 2a bf 50 3f 7b bf 74 bc 0e bf
       0.8059977 -0.6648873 -0.9814348 -0.55756307
000210 c2 1b fe 3d df 8c 37 bd 91 9a fc 3e e7 f1 56 3e
       0.12407638 -0.04481208 0.49336675 0.20990716
000220 26 0b 1a bf 97 a2 6c 3e 49 8f aa 3e 00 5c 7f bd
       -0.6017326 0.23108898 0.33312443 -0.062343597
000230 87 f0 9f 3e ec ff ae 3e 23 67 42 3e 05 ce e6 3e
       0.31238195 0.34179628 0.18984656 0.45079055
000240 09 04 3f bf 4c 41 0d bf bb ff 3b bf 43 a8 4b bf
       -0.7461553 -0.5517776 -0.7343709 -0.7955362
000250 75 5d cc be 3c c3 15 3f 01 6d 16 bf a4 7f 96 be
       -0.39915052 0.5850103 -0.58760077 -0.29394257
000260 9e f7 3b bf 5c d5 07 3d 95 bc d3 3d f2 2d 48 bf
       -0.7342471 0.03316246 0.103387035 -0.78195107
000270 92 71 48 bd ee 26 80 3f 64 02 0c c0 0c d7 13 3e
       -0.048936434 1.001188 -2.187646 0.14437503
000280 bd 51 c9 3f 55 cd 42 3d 6f 2c 66 3e 5c 21 fd 3e
       1.572807 0.0475591 0.22477888 0.49439514
000290 07 fb 14 be 69 7b 2e bf 00 84 6f 3e 26 2b f3 3e
       -0.14548884 -0.6815706 0.23390198 0.47493857
0002a0 c4 91 13 bf d3 ac a7 be f9 cd d8 3e f8 30 13 3a
       -0.57644296 -0.32749042 0.42344645 0.0005614902
0002b0 d2 51 f9 3e 4a f7 78 be ca 27 08 3f 82 e2 ec 3e
       0.48695236 -0.24313083 0.53185713 0.46266562
0002c0 a2 a8 80 3e 3a 0e a7 be 1f 60 95 3d a6 02 89 3f
       0.25128657 -0.32628042 0.07293724 1.0703933
0002d0 ba f2 6c bc 37 d5 88 bc b6 dc ee 3e 53 0b 34 bf
       -0.014462167 -0.016703231 0.46652764 -0.7032978
0002e0 76 12 93 be 55 a4 e2 be 66 78 34 bf 2f 66 ee be
       -0.28725022 -0.44266 -0.70496213 -0.46562335
0002f0 45 42 9f be 30 ed 5c 3f 91 e3 19 3d 45 d5 30 bf
       -0.31105247 0.8629942 0.03757054 -0.69075423
000300 d7 83 7e bd f3 fe 35 bf b2 29 e9 be a2 67 67 3d
       -0.06213745 -0.71092147 -0.45539623 0.056495316
000310 a6 68 4a 3f 37 33 87 3f c9 9a d5 be 56 4a bc bc
       0.7906593 1.0562505 -0.41719654 -0.022984665
000320 82 1b 44 bf 08 59 48 bf 39 4a ed 3e 4b 74 c5 be
       -0.76604474 -0.7826085 0.4634569 -0.38565287
000330 e4 76 f3 3d 4a b4 fa 3e 17 26 aa be 88 ac ce 3d
       0.11887911 0.48965675 -0.33232185 0.100915015
000340 c6 2a 35 bf d1 0d d3 bd 04 1c 7c bf 98 73 c1 3e
       -0.7076839 -0.1030537 -0.9848025 0.37783504
000350 36 0a 85 3f 84 67 40 3d b0 45 4e 3f 94 6d 84 bf
       1.0393741 0.04697372 0.80575085 -1.034594
000360 f3 1d 00 3f 5a 79 af 3d 2c dc 00 3f 9d f4 1c bf
       0.500457 0.08568068 0.50335956 -0.6131075
000370 48 99 9b bf 59 5e 57 c0 01 c7 dd 3e 7b cb e6 3e
       -1.2156153 -3.3651335 0.4331589 0.45077118
000380 24 04 cf 3e b5 05 33 bd 42 96 97 be 8a 50 37 3e
       0.40432847 -0.043706615 -0.29606825 0.17901817
000390 06 12 6d be a5 b6 2a 3f a7 c0 cc 3f b5 44 bd be
       -0.23151407 0.66684943 1.5996293 -0.36966482
0003a0 e3 27 a6 bf d7 84 70 bf 91 fa 31 bf 3d 48 d8 be
       -1.2980922 -0.939527 -0.6952296 -0.42242613
0003b0 74 77 78 3e 55 f9 a1 bd 6b bf 54 3d 7a 4f 16 bf
       0.24264318 -0.079088844 0.051940363 -0.5871502
0003c0 ae 05 87 3f 33 29 ce be 69 8e 63 be 9e e6 21 bf
       1.0548608 -0.40265808 -0.22222294 -0.6324252
0003d0 7c e1 ec be 41 53 c0 be 30 c6 e0 bd 95 54 1a bd
       -0.4626578 -0.37563518 -0.10975301 -0.03767832
0003e0 12 1d 14 3c 54 8c 50 bf f1 70 b3 be 4a 58 54 be
       0.009040134 -0.81464124 -0.35047105 -0.20736805
0003f0 5a c8 17 bc 95 a8 24 3d 96 c8 2b 3e d1 b6 29 3f
       -0.009264076 0.040199835 0.16775736 0.6629458

sequential_10/conv2d_31/Conv2D f4 [64, 3, 3, 32]
000000 9a aa 52 bd ba 89 a0 3d 05 0a 76 bd 5b 29 4b 3d
       -0.05143223 0.07838769 -0.06006815 0.049599987
000010 6e 9e 15 be da f6 b5 3d 1d 11 5d bd dc ff 22 3c
       -0.14611217 0.08884974 -0.0539714 0.009948697
000020 79 e3 12 3c 35 dc ce bd 81 f3 a9 bd a1 41 b3 3d
       0.0089653665 -0.10100595 -0.08298398 0.08752752
000030 e0 21 f9 bd 4d c6 e6 bd 8e a2 e8 bd ba 7b 98 3d
       -0.12164664 -0.112682916 -0.1135913 0.07445474
000040 70 5f c1 bc 35 5d 08 be 1c 2f b7 3d 8a 12 91 3b
       -0.023605078 -0.13316806 0.08944532 0.004427259
000050 00 02 8a bd 71 4b 0b bd 00 42 ff 3d e9 65 c7 bd
       -0.06738663 -0.034007493 0.124637604 -0.09736235
000060 fd 33 8a 3d 9a 67 dd 3d e7 32 e0 bd 40 fe b2 bd
       0.06748197 0.10810776 -0.10947209 -0.087399006
000070 a3 05 fb bb 00 94 e4 bd c6 db c2 bd cd 45 f7 3d
       -0.007660584 -0.11161041 -0.09514575 0.1207386
000080 c8 4c 94 bd d1 02 73 3d 25 98 1f 3d 28 b0 42 3d
       -0.07241207 0.059328858 0.038963456 0.047531277
000090 27 5b 8a 3d 99 35 1f be c8 26 c8 3d 07 52 77 3c
       0.06755667 -0.1554779 0.09773022 0.01509524
0000a0 ef 89 51 3c b7 6e ab bd 4a 9f e7 3d 84 2a 35 3a
       0.012789234 -0.083707266 0.11309679 0.00069109374
0000b0 90 90 84 bd 6f 04 d9 bd 04 86 20 be 8c da b0 3c
       -0.064728856 -0.10596549 -0.15676123 0.021588586
0000c0 90 b0 10 3e 0d cd 39 3b 22 b2 c5 3d 8a d0 f9 bd
       0.14129853 0.002835098 0.09653117 -0.12197979
0000d0 27 d7 01 be 2a 04 83 bd 95 6f 94 3d 4a 4e 1b 3d
       -0.1267973 -0.063972786 0.07247845 0.03791646
0000e0 43 79 15 bc 9d 8e 18 be e1 0f 47 3c b8 bd f6 3d
       -0.009123149 -0.14898153 0.012149782 0.12047905
0000f0 73 9c 0f be e4 4d 64 3d e4 d3 b1 3c ae 7c 0c 3d
       -0.14024524 0.055738345 0.021707483 0.03429859
000100 9f e8 07 be d1 83 4f bd 68 36 70 bd 93 e4 bb 3c
       -0.13272332 -0.05066282 -0.058645636 0.022936141
000110 6e 75 31 3d 08 cf 2d bc d8 f0 06 be a9 c9 c9 3c
       0.04332488 -0.010608442 -0.13177812 0.024632292
000120 1f fd f6 bd 52 ac de bd f1 f4 9f 3d 7f e4 f2 bd
       -0.12059998 -0.10872711 0.07810391 -0.118599884
000130 44 22 b5 3c 04 12 cf 3d 96 93 15 3d e8 0d 36 be
       0.022111066 0.10110858 0.036517702 -0.17778742
000140 f8 4a 0f be 81 dd d2 bb 9e 8c a6 bd 90 67 20 be
       -0.13993442 -0.0064350967 -0.08132289 -0.15664506
000150 56 a3 be bd 9f 98 0f bc 1f 07 06 be 02 cf b9 3c
       -0.093084976 -0.008764415 -0.13088654 0.022681717
000160 27 20 21 3e fa cd a2 bc 18 86 b2 bd ce a1 2f 3d
       0.15734921 -0.019873608 -0.087169826 0.04287892
000170 eb ef 11 be f0 2a 3c bc f6 75 15 be 80 8c c1 3d
       -0.14251678 -0.0114848465 -0.1459578 0.094506264
000180 9f 38 dd 3c b6 23 73 3d 5b a2 ad 3c ac fa c1 3d
       0.027004538 0.05936023 0.021195581 0.0947164
000190 52 b2 e5 bd 65 89 d2 3d dc fb b2 bc 74 07 17 bd
       -0.112156525 0.10280112 -0.021848612 -0.036872342
0001a0 ba 3b 01 be d7 80 82 3d 28 07 6c 3c 66 61 ab bb
       -0.1262044 0.063722305 0.014406003 -0.0052301167
0001b0 bb aa f4 3d 39 46 a7 bb 4a fd 74 bc 28 57 e9 3c
       0.11946627 -0.0051048067 -0.014952967 0.028483942
0001c0 b4 25 8c bd c6 e1 a9 bd e0 ff 2a bd 3a fb 86 3b
       -0.06843129 -0.08295016 -0.041747928 0.004119304
0001d0 c5 2f d2 3c 3c 3e b1 bc 3f 3a 58 3d c4 1b 77 3d
       0.025657544 -0.021636121 0.052789923 0.060329214
0001e0 c4 62 99 bd 37 c5 d2 bd f8 99 b4 bd 9a c0 d5 bd
       -0.07489541 -0.10291522 -0.0881843 -0.104371265
0001f0 81 05 1e 3b 8e bc 14 be aa 6d 87 bd 46 56 97 3c
       0.0024112167 -0.14525053 -0.06612714 0.018473756
000200 11 be 97 bd 28 b3 60 3c a6 93 b9 bd 6f 9e 25 3d
       -0.07409299 0.013714589 -0.09061365 0.040434297
000210 79 ba 6a bd 81 91 9d bd e4 2d d9 b9 b1 65 e1 3c
       -0.05730674 -0.07693768 -0.00041423657 0.02751431
000220 04 1d 0f 3e 6d 35 b0 ba ca 71 0f be bd 71 50 bd
       0.13975912 -0.0013443656 -0.14008251 -0.05088972
000230 5f 24 cd bd fe b8 e4 b8 3f d8 cc 3d c4 02 f4 3c
       -0.10016703 -0.00010906345 0.10002183 0.029786475
000240 4b b3 fb bc 92 13 45 3b 42 4e 85 bc 4b 42 79 bd
       -0.030725142 0.003007148 -0.016272668 -0.060854238
000250 5a 1a 2d 3d 89 51 ff bd b7 61 92 bd c4 2b 25 be
       0.04226146 -0.124667235 -0.07147544 -0.16129977
000260 9c 31 0c 3b 0a 22 e4 bd 27 2a d3 bc 4d 48 01 be
       0.0021391874 -0.11139305 -0.025776936 -0.12625237
000270 98 f5 20 3d 56 8d 5d bd b1 e9 be 3d 9c 5a 08 bd
       0.039296716 -0.054089867 0.09321917 -0.033289537
000280 5d 5d 2c be d4 31 3c 3d a0 41 ac 3d b2 ac 53 be
       -0.1683249 0.045945957 0.084109545 -0.20671347
000290 2d df 37 bc bf 9d 22 bd 55 f0 1f be 8f f0 59 bd
       -0.011222643 -0.03970122 -0.15619023 -0.05320793
0002a0 dd 8f 2e 3d ab db e8 bd 6f 17 a8 bd 3a af d7 bd
       0.042617667 -0.11370023 -0.082075946 -0.10531469
0002b0 e3 09 85 bd b1 46 02 3e ec 04 16 be c2 b4 55 3d
       -0.06496026 0.12722279 -0.14650315 0.052174337
0002c0 6e e9 0b be c2 cf 3c be b0 3c 99 bd f9 13 2e bd
       -0.13663265 -0.18438628 -0.07482278 -0.042499516
0002d0 90 03 e2 3d 31 39 ec 3d c6 61 f4 3d 5e dc ca bd
       0.11035836 0.11534346 0.11932711 -0.09905313
0002e0 e8 ed a7 bd 13 34 3e bd 6e e6 d5 3d 40 79 d6 3d
       -0.08199674 -0.04643638 0.104443416 0.10472345
0002f0 de 2d bb bc 13 4b 92 bd 6a e8 b9 bd 30 a5 27 be
       -0.02284902 -0.071432255 -0.090775326 -0.16371608
000300 19 38 f8 3d f0 12 17 3e 4d 2f 2a 3d cf d8 39 be
       0.12120075 0.14753318 0.041549016 -0.18149112
000310 cf d7 b0 3d 5b 72 0f be d0 61 48 3d 65 64 d3 3d
       0.08634912 -0.14008467 0.048921406 0.10321883
000320 bf 8f 00 3e 71 dc 3c be 0d 84 23 bd 11 2d f0 3d
       0.12554835 -0.18443467 -0.039920855 0.11727346
000330 b7 8a dd 3d 0a 4a 0d 3c bb 07 94 3d fd 1d b1 3c
       0.108174734 0.008623609 0.07228037 0.021620745
000340 a5 1b f7 3d b0 60 fa 3c ae 69 fd bc 04 ad c1 3d
       0.1206582 0.030563682 -0.030934181 0.09456828
000350 9a fe 0b 3e b1 2d a7 bd d1 fa a1 3b d3 87 b8 bd
       0.13671342 -0.08163012 0.0049432297 -0.090102814
000360 05 3b 43 bc e6 f7 23 bd ad c4 b4 bc 01 36 df 3c
       -0.011915927 -0.040031336 -0.022066439 0.02724743
000370 20 2d 0a be c9 a2 5d bd ca e8 18 3e a0 fd 24 bd
       -0.13493776 -0.054110322 0.14932552 -0.04028094
000380 74 45 24 bd a7 3e ac bd 9a 3c 12 be bf d0 16 bc
       -0.0401053 -0.084103875 -0.1428093 -0.009205042
000390 40 8d 9a bc 3d ac 0c bd 9e f0 0e be b6 87 db 3d
       -0.018866181 -0.034343947 -0.13958976 0.10719244
0003a0 f7 28 79 3c ac 05 c9 3d 9d df 86 bd 55 a8 ec 3a
       0.015207521 0.09815535 -0.065856196 0.0018055538
0003b0 91 1c 39 3d b8 a1 06 3e 95 c7 0b be 72 83 ca bd
       0.04519326 0.13147628 -0.13650353 -0.098883525
0003c0 9d 9e 48 bd 1e a2 48 be 2f 8b eb 3d fa 70 92 bd
       -0.04897939 -0.19593093 0.115011565 -0.07150455
0003d0 f1 49 fd 3d bb 50 15 be a9 e0 c9 bc 3a f7 1f 3e
       0.12367619 -0.14581577 -0.02464326 0.15621653
0003e0 df 0a 04 be 23 b6 12 bd f9 f5 59 bd 25 95 51 bd
       -0.12894772 -0.03581823 -0.053213093 -0.051167626
0003f0 e1 47 96 bd 2d fd 0f bd 4d db 2f bc 09 77 68 3d
       -0.073379286 -0.035153557 -0.010733438 0.056754146

sequential_10/conv2d_32/Conv2D f4 [64, 3, 3, 64]
000000 78 63 01 bd e7 0a bf 3d df ec f4 bc 3f b9 b4 bc
       -0.031589 0.09328251 -0.029898105 -0.022060988
000010 d4 aa 07 be 9d 1e 36 bd ce 93 a7 bc c9 2d d3 bb
       -0.1324876 -0.04446279 -0.020456221 -0.006444667
000020 34 08 ca bd 0f a5 43 3d 73 00 a0 bc 0a e9 5e 3d
       -0.09864846 0.047764834 -0.019531464 0.054421462
000030 68 b6 86 bc e9 64 de 3c f0 77 74 bc 55 1c 80 3b
       -0.0164444 0.027147727 -0.014921173 0.0039096274
000040 36 22 0e 3d c9 5b c9 bd 6a a2 99 bd 77 c6 a8 3d
       0.034700595 -0.0983196 -0.07501681 0.08240979
000050 1e 98 5e bc 1e 4e 8a bb 5d 11 24 3d 3f fe 98 3d
       -0.013586072 -0.004220738 0.04005562 0.074703686
000060 ac 91 59 bd db 95 e6 bd 95 2f 83 bd 1b cd 6f bc
       -0.05311744 -0.112590514 -0.0640556 -0.014636303
000070 de 44 f9 3c fc c9 cf 3d 74 cc d2 bd 2d 4c 81 bd
       0.030428346 0.10145947 -0.102929026 -0.063133575
000080 d4 f8 04 bd f4 51 91 3c ef db dc bc 30 40 af bd
       -0.032463863 0.017739274 -0.026960341 -0.08557165
000090 4f 95 6e bd ec b9 9f 3d 86 8a 91 bd 98 ba 7d bd
       -0.05824786 0.07799134 -0.071064994 -0.061945528
0000a0 e7 e1 a0 3d 50 84 d6 bd ee ed d0 3c 3d 15 6f 3d
       0.078555875 -0.10474455 0.025504079 0.058369864
0000b0 54 b4 ca bd 60 1f b6 3d 7b 86 0f 3b ae 52 59 3c
       -0.09897676 0.08892703 0.0021900225 0.013264341
0000c0 d1 f0 a1 3c 9f 88 b0 3d 12 0f 3d 3d e8 79 2f 3b
       0.01976815 0.086198084 0.04615695 0.0026775543
0000d0 90 ce 23 bd f0 f8 c8 3d c2 18 e5 bb fd 89 f2 ba
       -0.039991915 0.09813106 -0.0069914768 -0.0018504258
0000e0 54 ac ab 3c 23 a0 7d bd 74 7e b9 bd 36 e5 25 bd
       0.020956196 -0.061920296 -0.09057322 -0.040501796
0000f0 64 f8 e1 bd c5 3e 9a 3d 08 85 d1 3c cf e1 8c 3d
       -0.11033705 0.075315036 0.02557613 0.06879007
000100 f6 5f ef 3d 81 98 3c 3d de 2d 4d 3d ed 7e 09 3d
       0.11688225 0.046043877 0.05009257 0.03356831
000110 f1 53 2f bd 49 af 8a bc 74 50 17 3c 13 62 bc bc
       -0.042804662 -0.016929286 0.00923549 -0.022995984
000120 50 d9 dc 3b f7 37 40 3d 94 45 bb 3d 82 89 97 bc
       0.006739773 0.046928372 0.0914413 -0.018498186
000130 44 64 83 bd 4b 8d 00 bd 0e 64 9c bd a6 67 81 bd
       -0.064156085 -0.031384747 -0.076362714 -0.063185975
000140 8c 27 c2 bd cc 1f c7 bd cb a3 05 be a9 85 8c bd
       -0.09480199 -0.09722862 -0.13050763 -0.06861431
000150 88 da 8a bc d9 76 c1 bd b4 ab 66 3d 71 75 9e bd
       -0.016949907 -0.094464965 0.056316093 -0.07737244
000160 58 86 8b 3c b2 82 59 bc 0c 25 4e 3d c8 2a 1b be
       0.017031834 -0.013275789 0.0503283 -0.15153039
000170 9d bf 17 3d ce ef 9d 3d 16 35 02 be fe 61 4a bc
       0.03704797 0.07711755 -0.12715563 -0.012352465
000180 c4 7a 2c bc c1 c7 92 3d 24 c6 08 bd a8 ae d3 bd
       -0.0105273165 0.07167006 -0.033392087 -0.103360474
000190 43 93 1d bd 6c 5d 82 3d 01 36 43 bd 3f 6c 91 3d
       -0.038470518 0.06365475 -0.047658924 0.071007244
0001a0 82 e9 18 3d 3c ba 94 3c 60 5b 14 3d dc ca 3c bd
       0.037332065 0.01815521 0.036219954 -0.0460919
0001b0 bb fb 1b 3d de 76 88 bd 48 ce 93 bc db d7 3b 3d
       0.038081866 -0.06663297 -0.018042699 0.045860153
0001c0 03 26 32 bc 6e 82 e0 bd c6 38 89 bd b9 a4 83 bd
       -0.0108733205 -0.109623775 -0.06700282 -0.06427903
0001d0 38 83 f1 bd 92 10 09 3d e1 51 e1 3c 20 65 d6 bc
       -0.11792606 0.03346307 0.027504863 -0.026171267
0001e0 c6 1f 8c 3d 51 d9 c9 bd 50 71 05 bd f2 36 b5 3d
       0.06841998 -0.09855903 -0.032578766 0.088483706
0001f0 51 7d 4d 3d 66 3a ec 3c bf 94 bc 3d 5a a7 8d bd
       0.05016834 0.02883644 0.092080586 -0.069166854
000200 f8 b8 2e 3d 23 32 27 bd 1b 71 ca 3d 49 d3 b0 bc
       0.04265687 -0.0408193 0.098848544 -0.021585124
000210 88 66 7f 3b 3e 14 9f bc ad 1f 6a bd 8f 91 fb bd
       0.0038971025 -0.019418832 -0.057159115 -0.122836225
000220 a5 d1 5c bc d3 d9 07 3d d9 47 9f 3d ab 1f bf 3c
       -0.0134777175 0.033166718 0.07777376 0.02333053
000230 31 a8 68 3d c9 a0 18 3d 12 94 d6 bc 86 80 d9 bd
       0.056801025 0.03726271 -0.026193652 -0.10620217
000240 6a ef 92 bd 82 fb 8e bd ea 8d 0c bd 15 63 1b 3d
       -0.07174571 -0.06981565 -0.034315027 0.03793629
000250 88 0c b2 3d 0a eb 8c 3d 0e 8c 14 bd 9f 1d af 3a
       0.086937964 0.06880768 -0.03626638 0.0013360268
000260 2c 65 29 be 95 24 82 bd 14 71 7b 3d 36 eb 7e 3c
       -0.165425 -0.06354634 0.061387137 0.015559008
000270 5e e4 f4 bc f1 f1 c6 3c db 4d 5d 3d de 95 47 3c
       -0.02989405 0.024285289 0.054029327 0.012181727
000280 75 fa 8b bc 26 67 ec bd 52 39 e3 3c 34 d1 fc bd
       -0.0170872 -0.115431115 0.027737293 -0.1234459
000290 05 d8 8e bc 89 c7 0e bd e1 9f 99 3d 4a e9 e1 bd
       -0.01743699 -0.03485826 0.075011976 -0.110308245
0002a0 4f c7 af bc 8c 7a 92 bd 01 dd 21 3d fe a7 73 3d
       -0.021457342 -0.0715228 0.039517406 0.05948638
0002b0 5d 27 fa bd 19 3d da 3c 27 c3 98 bd bd ec 5b bd
       -0.12214539 0.026640462 -0.07459097 -0.053692568
0002c0 e1 3d 85 bd 6f 99 53 bd 8c 82 4d 3d 2e 79 9b 3d
       -0.06505943 -0.051659998 0.050173327 0.075914726
0002d0 e5 f1 98 bc 83 2d 47 bd b6 1c 87 bd 0d df 26 3d
       -0.018670032 -0.048627388 -0.06597273 0.04074006
0002e0 e7 c3 22 bd 6b 04 1a bc 50 c0 8e bd 3b 7d 6d 3d
       -0.03973761 -0.009400467 -0.069702744 0.057980757
0002f0 1e fe 9d 3d a8 37 7c bd 53 db 76 3d d4 62 20 bd
       0.07714485 -0.061576515 0.060267758 -0.03915675
000300 38 f8 4e 3c 51 9a 6c bd 73 32 4c 3c 77 53 80 3d
       0.012632422 -0.057764355 0.0124632 0.0626592
000310 ab 37 2e bd a2 f1 ee 3c 9e 97 0b 3c 3e a5 af bd
       -0.042533558 0.029167954 0.008520035 -0.08576439
000320 20 84 fd 3c 97 00 25 bd 4f d3 d7 bc 61 d6 9c bd
       0.030946791 -0.040283766 -0.026345877 -0.07658077
000330 32 12 6e 3d 0d 70 03 be 8f ce 9d 3d ac 2e 93 3c
       0.05812282 -0.12835713 0.077054136 0.01796659
000340 ea a0 32 3c 7a f9 54 bd f9 0c 8b bd 6a b4 88 3c
       0.010902623 -0.051995732 -0.06789584 0.01668759
000350 6e b6 8c 3d e9 c5 99 bc 5c 90 b6 bd 47 a0 c7 3b
       0.06870733 -0.018771129 -0.08914253 0.0060921046
000360 14 d1 9f bd 7d 32 ff bd 61 55 36 3d e7 db 34 3c
       -0.0780355 -0.12460802 0.044515017 0.011038757
000370 6f 04 2d bd d6 32 55 bd 46 06 f3 3c a4 9c 8f 3d
       -0.042240556 -0.052050434 0.029666077 0.07012299
000380 49 26 d6 3d 2d 34 db 3d 04 60 b1 3c 23 c3 f9 bc
       0.10456521 0.10703311 0.02165223 -0.030488556
000390 c1 b3 04 3c c8 eb 1a 3c 96 d7 84 bd 7b 78 53 3d
       0.008099497 0.009455629 -0.06486432 0.05162857
0003a0 9d e9 83 bd 5d e4 0f bd 2f 6a b0 bd 88 7d 82 bd
       -0.064410426 -0.035129894 -0.08614003 -0.063715994
0003b0 94 5e 11 bd 45 18 aa bd e1 1d c3 bd f9 09 ae 3b
       -0.035490587 -0.0830541 -0.09527183 0.0053112474
0003c0 3f 54 b1 3d 6d 13 00 be 00 27 e5 bc fa d3 82 3d
       0.08658647 -0.1250741 -0.027972698 0.063880876
0003d0 e4 c5 ff 3d 73 55 97 3d 2f e2 95 3c e1 1d 8a 3d
       0.124889165 0.07389345 0.01829633 0.0674398
0003e0 c7 5f 01 3d f4 82 b0 3d 49 26 b8 bc 67 8a ec 3c
       0.03158548 0.08618727 -0.022479193 0.02887459
0003f0 77 cc 85 bd 63 a6 81 3d eb e2 b9 bd 7e 7e ad 3c
       -0.06533139 0.06330564 -0.09076484 0.02117848
