Models/final_model_2.tflite (tflite, 256988 bytes, 10 tensors)

sequential_11/dense_23/BiasAdd/ReadVariableOp f4 [10]
0	0xbe01c5cd	-0.12673111
1	0x3e5a78a9	0.2133509
2	0x3efe4c76	0.4966771
3	0xbe2005a7	-0.15627156
4	0xbcda175b	-0.026622465
5	0xbe85249f	-0.26004502
6	0xbe12ae02	-0.14324191
7	0xbe93e597	-0.288861
8	0x3e758f0f	0.23980354
9	0x3d54bf38	0.051940173

sequential_11/dense_22/BiasAdd/ReadVariableOp f4 [100]
0	0xbcedd3b0	-0.029031605
1	0xbcc8aa66	-0.024495315
2	0x3c314947	0.010820693
3	0x3ecd45aa	0.40092212
4	0xbd8f4407	-0.06995397
5	0xbb65ff3d	-0.003509476
6	0x3dd0a2e1	0.10187317
7	0x3db63486	0.08896737
8	0xbbae6628	-0.0053222366
9	0x3d41303b	0.047165137
10	0x3d98977c	0.07450768
11	0xbc99befb	-0.018767824
12	0xbd196651	-0.037451092
13	0xbd896e51	-0.06710494
14	0xbd20ae9d	-0.039229024
15	0x3d6a716a	0.057237066
16	0xbda759f5	-0.08171455
17	0xbd9747a0	-0.07386708
18	0x3c0d8a84	0.008638982
19	0x3e0fd0de	0.1404452
20	0xbc3714b2	-0.011174368
21	0xbc10c6ef	-0.008836492
22	0x3d594af6	0.053050004
23	0x3d39ecdc	0.045391902
24	0x3dd4b354	0.103857666
25	0xbdff01d0	-0.124515176
26	0xbd0debb4	-0.034648612
27	0xbcc66418	-0.02421765
28	0x3c458b20	0.012057096
29	0x3d7298f0	0.059227884
30	0x3bfc8844	0.007706674
31	0x3dba28d5	0.09089819
32	0x3e115634	0.1419304
33	0x3d82ca57	0.063862495
34	0x3c6ff30b	0.014645348
35	0xbcbe8794	-0.023258008
36	0x3e0ef9b2	0.13962439
37	0x3dbe7200	0.092990875
38	0x3e566ba2	0.20939496
39	0x3d9ad89f	0.075608484
40	0x3d9fa163	0.07794454
41	0x3b37b7f5	0.002803323
42	0x3d8805fb	0.06641766
43	0x3d227e92	0.039671488
44	0xbd18cd47	-0.037305143
45	0xbd41e215	-0.04733475
46	0x3ca83189	0.020531433
47	0x3e45ca4c	0.19315451
48	0x3ddca965	0.10774497
49	0x3df2751f	0.11838745
50	0xbd95ec22	-0.073204294
51	0x3dfe5359	0.12418241
52	0x3deefdd2	0.11669506
53	0x3cacddfd	0.021101946
54	0x36878fd9	4.0400596e-06
55	0xbca6650a	-0.020311851
56	0x3d7f8fd2	0.062393017
57	0xbca46563	-0.020067876
58	0x3d86090c	0.06544694
59	0x3d26f380	0.040759563
60	0xbc81bcc3	-0.015837079
61	0x3dc3d01a	0.095611766
62	0x3bee4d94	0.0072724316
63	0x3c21ca3f	0.009874879
64	0x3e10e4a1	0.14149715
65	0x3dae2b5d	0.08504365
66	0x3dbea94d	0.09309635
67	0xbcf5cb02	-0.030004028
68	0x3dccd8d1	0.10002292
69	0xbb054080	-0.0020332634
70	0x3e747d14	0.23875839
71	0x3d3cfed0	0.046141446
72	0x3d855767	0.06510811
73	0xbc168fd5	-0.009189566
74	0x3d3c122e	0.045915775
75	0x3d22b544	0.03972365
76	0x3d93c84b	0.07215937
77	0x3e148ce8	0.14506876
78	0xbd46263f	-0.048376318
79	0x3cb6200f	0.022232084
80	0x3da6eeaf	0.08150994
81	0xbd0b6573	-0.034032296
82	0xbc37f24b	-0.011227201
83	0x3da4ff57	0.08056515
84	0x3ea0b7ee	0.31390327
85	0x3c297bd5	0.010344465
86	0x3e2d0279	0.16895474
87	0x3c9cd818	0.01914601
88	0x3d7a5ffc	0.061126694
89	0x3d1e9970	0.03872055
90	0x39a56538	0.00031546666
91	0xbd332690	-0.043737948
92	0x3d7246e2	0.05914963
93	0x3d7d01e3	0.061769377
94	0xbbb1b832	-0.005423569
95	0x3dcc1ed4	0.099668175
96	0xbc542613	-0.012948531
97	0xbb8a0e19	-0.0042131064
98	0xbbce5564	-0.0062968004
99	0x3cd56ff0	0.026054353

sequential_11/conv2d_35/BiasAdd/ReadVariableOp f4 [64]
0	0x3cceb36d	0.025232041
1	0xbd81da8d	-0.063405134
2	0x3d7e67c0	0.062110662
3	0xbdeec851	-0.11659301
4	0x3e0397cf	0.12850879
5	0xbda1cc68	-0.079003155
6	0x3d8f536d	0.06998334
7	0xbb834488	-0.0040059723
8	0xbc853bc8	-0.016263857
9	0x3d47720c	0.048692748
10	0xbc9cd10c	-0.01914265
11	0xbdb68767	-0.08912545
12	0xbb683f6b	-0.003543819
13	0x3dd31d2a	0.10308297
14	0x3d822c31	0.06356085
15	0x3e079326	0.13239726
16	0xbd52e7ca	-0.051490583
17	0x3df6596d	0.12028775
18	0x3d25af09	0.04045013
19	0xbb86d382	-0.004114569
20	0xbdbe6f44	-0.09298566
21	0xbe31b935	-0.17355807
22	0xbdcc1f6d	-0.099669315
23	0x3da481f9	0.08032603
24	0xbe825942	-0.25458723
25	0xbe06440a	-0.13111892
26	0xbed7d119	-0.42151716
27	0xbe80fad2	-0.2519136
28	0xbc494715	-0.012285014
29	0xbe1f1207	-0.1553422
30	0xbe14547e	-0.14485356
31	0x3e39d2ee	0.1814687
32	0x3dc0fdab	0.09423383
33	0xbca268c1	-0.019825341
34	0x3dd7b688	0.10532862
35	0x3e3d6b7d	0.18498035
36	0x3e791923	0.24325995
37	0x3dff44a1	0.12464262
38	0xbd1502dc	-0.03637968
39	0x3c8c3324	0.01711423
40	0x3e5c479e	0.21511695
41	0x3d0455f0	0.03230852
42	0xbd504e09	-0.05085567
43	0xbd30b2ff	-0.043139454
44	0xb8bdf221	-9.057322e-05
45	0xbde706cb	-0.112805925
46	0xbdbd258b	-0.092356764
47	0xbe2e1df4	-0.17003614
48	0xbe6a1687	-0.22860156
49	0x3e83ebd1	0.2576585
50	0xbd03855c	-0.032109603
51	0xbe7dc402	-0.24781802
52	0x3df5b37b	0.11997124
53	0xbd89dc6f	-0.067314975
54	0xbd5a107f	-0.05323839
55	0x3d90ada0	0.07064366
56	0xbe01b0cd	-0.126651
57	0x3e95e104	0.29273236
58	0xbb8abecc	-0.0042341705
59	0x3dab8ab5	0.08376066
60	0xbd152e86	-0.03642132
61	0x3d1d2c97	0.038372602
62	0x3e0f3b77	0.13987528
63	0xbad3da1a	-0.0016163022

sequential_11/conv2d_34/BiasAdd/ReadVariableOp f4 [64]
0	0xbc6300a4	-0.013855133
1	0x3d617045	0.05503871
2	0xbe353d49	-0.1769916
3	0xbdcd2215	-0.10016266
4	0xbd8b3d31	-0.06798781
5	0xbee9f165	-0.45691982
6	0xbd551c16	-0.052028738
7	0xbd3446ed	-0.044012953
8	0x3dc54f38	0.096342504
9	0xbc667587	-0.014066107
10	0xbe0d4fa7	-0.13799916
11	0xbcf1c2c3	-0.029511815
12	0x3cfc865e	0.03082579
13	0xbe1a7b84	-0.1508618
14	0xbd6c190d	-0.057641078
15	0xbd0332dc	-0.032030925
16	0xbd6a47a7	-0.05719724
17	0xbe3a43db	-0.18189947
18	0xbe2c0362	-0.16798165
19	0x3e6d2595	0.23158868
20	0xbd02a16c	-0.031892225
21	0x3e3d84ab	0.1850764
22	0xbd5c6fe0	-0.05381763
23	0x3ea03602	0.31291205
24	0xbc9ded9d	-0.019278342
25	0xbd82b665	-0.06382445
26	0x3d8dd4a7	0.06925326
27	0xbf3d780e	-0.74011314
28	0xbd969f27	-0.07354575
29	0xbdaef389	-0.085425444
30	0x3e600e44	0.21880442
31	0xbd8fc2f1	-0.07019604
32	0x3da61f76	0.081114694
33	0xbcd855e1	-0.026408138
34	0xbe3d0102	-0.18457416
35	0x3cab3437	0.020898921
36	0xbe1216c5	-0.14266498
37	0xbd8577c6	-0.065169856
38	0xbe1e894d	-0.15482064
39	0x3de94745	0.11390547
40	0xbbfb2358	-0.0076641254
41	0xbd8fdd26	-0.070246026
42	0xbd271483	-0.040791046
43	0xbd545545	-0.05183913
44	0xbdd05558	-0.10172528
45	0xbe55bf19	-0.20873679
46	0xbe379317	-0.17927204
47	0xbcd537cf	-0.026027588
48	0xbe43afe8	-0.19110072
49	0xbe11ba2f	-0.1423118
50	0xbec3c0a5	-0.38232914
51	0xbe49a7ba	-0.19692889
52	0xbd497e7e	-0.049192898
53	0xbe407f9f	-0.18798684
54	0xbcc1445b	-0.023592165
55	0x3dc29253	0.095005654
56	0x3da3004d	0.07959042
57	0xbd8a650b	-0.06757554
58	0xbd25fb7c	-0.040523037
59	0x3d2a182f	0.04152697
60	0x3e4b187d	0.1983356
61	0xbd882310	-0.06647313
62	0xbe2caa36	-0.16861805
63	0xbdf783cb	-0.120856844

sequential_11/conv2d_33/BiasAdd/ReadVariableOp f4 [32]
0	0xbe999d71	-0.3000293
1	0xbf94e6c1	-1.163292
2	0xba1bba9b	-0.0005940587
3	0xbd60765a	-0.05480037
4	0xbd90ccdc	-0.07070324
5	0xbdf60de3	-0.120143674
6	0xbf4fb29c	-0.8113191
7	0x3d10bd8e	0.035337023
8	0x3cc4a0df	0.02400249
9	0xbdeba81d	-0.115066744
10	0xbc8c8ec4	-0.01715792
11	0xbd57c0da	-0.052674152
12	0xbd6dc11e	-0.0580455
13	0xbca45687	-0.02006079
14	0xbf2e0ef0	-0.6799154
15	0x3c8b1a46	0.016980302
16	0xbe87fb01	-0.26558688
17	0xbee96cb8	-0.45590758
18	0xbd90703e	-0.070526585
19	0xbcc89a83	-0.02448774
20	0xbc8f9ba7	-0.017530276
21	0xbde03115	-0.10946862
22	0xbc899aed	-0.016797507
23	0xbdd2428b	-0.10266598
24	0xbddbd1b4	-0.10733357
25	0xbe25f590	-0.16206956
26	0xbc92e611	-0.01793197
27	0xbeda1c9f	-0.4259996
28	0xbd982680	-0.07429218
29	0xbe267e33	-0.16259079
30	0xbdb136bd	-0.086530186
31	0xbd4759a6	-0.04866948

sequential_11/dense_22/MatMul f4 [100, 64]
0	0xbe1c7a0a	-0.15280929
1	0x3e75dbc5	0.24009617
2	0xbe9e67e1	-0.30938628
3	0x3e63f407	0.22261058
4	0x3c210ef7	0.009830228
5	0xbe6082ec	-0.21924943
6	0x3e96c6e9	0.2944863
7	0x3cfb7ec6	0.030700099
8	0xbe92ec31	-0.28695825
9	0xbe4f2903	-0.20230488
10	0xbe917ceb	-0.28415617
11	0x3ec09369	0.37612465
12	0xbce01150	-0.027352005
13	0xbc871fb6	-0.016494613
14	0x3ecf9fca	0.40551597
15	0x3f147238	0.57986784
16	0xbe1d7970	-0.15378356
17	0x3dc22010	0.09478772
18	0x3ead283f	0.33819768
19	0xbeabcd66	-0.33555144
20	0xbc922350	-0.017839104
21	0x3d53ca1f	0.05170643
22	0xbecaf127	-0.3963711
23	0xbcf5363b	-0.029933086
24	0x3cfb2c90	0.030660897
25	0x3de2cdfe	0.11074446
26	0xbeca9e85	-0.39574066
27	0xbb9acdf2	-0.0047242576
28	0xbdb5a2ab	-0.08868917
29	0xbef303bd	-0.4746379
30	0xbe1dbbd9	-0.1540369
31	0x3e20d602	0.15706638
32	0x3eb2a61c	0.34892356
33	0x3e86bd32	0.2631622
34	0x3ea539e6	0.32270736
35	0x3e91c88a	0.28473312
36	0xbe93b78f	-0.28850982
37	0xbe778f66	-0.24175796
38	0xbe562e3d	-0.20916076
39	0x3dd0a4fc	0.10187718
40	0x3d487a3d	0.0489447
41	0x3ed16150	0.40894556
42	0x3c540a7a	0.012941951
43	0xbe52d195	-0.20587762
44	0x3e783049	0.2423717
45	0xbe4f9dd3	-0.20275049
46	0x3eb3cc50	0.35116816
47	0x3db05359	0.08609647
48	0xbe5e45ac	-0.21706265
49	0x3bf5f641	0.0075061624
50	0xbe190c97	-0.14946209
51	0xbe8f1798	-0.27947688
52	0xbec4e51f	-0.38456056
53	0xbe0125ea	-0.1261212
54	0x3dd3d220	0.103428125
55	0xbd6905a2	-0.056890137
56	0x3e10f6d7	0.14156662
57	0x3e05c732	0.13064268
58	0xbc6bdc63	-0.014395806
59	0xbd04d676	-0.03243109
60	0x3ede2d88	0.43394113
61	0x3e85e8c1	0.2615414
62	0x3c2a8995	0.010408779
63	0xbd6ad02b	-0.05732743
64	0x3d939c59	0.07207555
65	0x3e008320	0.1255002
66	0x3e44fae1	0.19236328
67	0x3da7cf44	0.0819383
68	0x3dacb7cd	0.08433495
69	0xbcbdee9f	-0.023185072
70	0x3de9d67c	0.11417863
71	0xbe7796e7	-0.24178658
72	0xbe3c7f1e	-0.18407866
73	0xbec1fce6	-0.3788826
74	0xbd8a46b3	-0.06751766
75	0xbeb6d3a4	-0.35708344
76	0xbed8ea86	-0.42366427
77	0xbc930ead	-0.017951334
78	0x3d8bd5c4	0.06827882
79	0x3e6c20a3	0.23059325
80	0x3d596429	0.053074036
81	0x3da4c296	0.08044927
82	0x3ec900b5	0.39258352
83	0xbc826f85	-0.015922317
84	0xbe848b22	-0.258874
85	0x3dd6e797	0.10493391
86	0x3e1c6652	0.15273407
87	0x3e305f52	0.17223862
88	0xbed6ce9f	-0.41954514
89	0x3e212a1d	0.15738721
90	0xbe584d28	-0.21123183
91	0xbe5508f5	-0.20804198
92	0x3e61adaf	0.22038911
93	0x3e1f38b9	0.15548982
94	0xbe840faf	-0.25793216
95	0x3ec97933	0.3935028
96	0xbcea8fc7	-0.028633012
97	0xbe93d230	-0.28871298
98	0xbdf95a06	-0.12175374
99	0x3eaa01a1	0.33204368
100	0xbdc00e12	-0.09377684
101	0x3d48c025	0.04901137
102	0x3e6583b8	0.22413528
103	0xbe74a526	-0.23891124
104	0x3e696359	0.22791804
105	0x3cf6ca11	0.03012565
106	0x3e62795f	0.22116612
107	0xbe439835	-0.19101031
108	0xbe87f9f0	-0.26557875
109	0x3e14ed59	0.14543666
110	0xbe3cc928	-0.1843611
111	0xbe2d2ac6	-0.16910848
112	0xbe6a8f6d	-0.22906275
113	0x3e20dcca	0.15709224
114	0xbde1af6b	-0.110197864
115	0xbe09738e	-0.13422987
116	0x3d6c1683	0.057638656
117	0xbea1690f	-0.31525466
118	0xbe800d1a	-0.25009996
119	0x3e70899f	0.23489998
120	0x3e811dc8	0.25218034
121	0x3de6d8dd	0.11271832
122	0x3ed71e6b	0.42015395
123	0xbcd97be9	-0.026548343
124	0x3df80aa6	0.12111406
125	0xbdf57325	-0.11984853
126	0xbe052d83	-0.13005643
127	0x3e5a3816	0.21310458
128	0xbe84a851	-0.25909665
129	0xbe4952e5	-0.19660528
130	0xbcee23bf	-0.02906978
131	0x3c3ebbac	0.011641424
132	0xbd23ab4f	-0.039958294
133	0x3a98fb67	0.0011671603
134	0x3c4066e7	0.011743284
135	0x3e746e6d	0.23870249
136	0xbe360586	-0.17775545
137	0x3d387cd5	0.045040924
138	0x3df67467	0.12033921
139	0xbd96b8f1	-0.073594935
140	0x3e84817f	0.25880048
141	0xbdaa0b81	-0.083029754
142	0x3d9ad22a	0.07559617
143	0x3ac515c5	0.0015036395
144	0xbd23bfe2	-0.039977916
145	0x3e44bc26	0.19212398
146	0xbd5682a5	-0.052370686
147	0x3dab1540	0.083536625
148	0x3e0c9eeb	0.13732497
149	0x3e22ebcd	0.15910263
150	0x3e5d6de0	0.21623945
151	0x3ed21ca8	0.41037488
152	0xbe36208a	-0.1778585
153	0x3e31c0e2	0.17358735
154	0xbda72540	-0.08161402
155	0xbe08e033	-0.13366775
156	0xbbf1d941	-0.007380635
157	0xbdf1a09a	-0.117982104
158	0xbe06db5b	-0.13169615
159	0xbc37398c	-0.011183154
160	0x3e64a6b9	0.22329225
161	0x3e8a6d68	0.27036595
162	0x3c370027	0.01116947
163	0xbd27c65e	-0.040960662
164	0xbd9190ed	-0.071077205
165	0xbe6e9310	-0.23298287
166	0xbd92d4fd	-0.071695305
167	0x3e12e908	0.14346707
168	0x3e37d141	0.17950918
169	0xbdc1f361	-0.09470249
170	0x3c830a2b	0.01599606
171	0xbd868e8f	-0.0657016
172	0xbe2bae34	-0.16765672
173	0xbe4be54e	-0.19911692
174	0xbecc9faf	-0.3996558
175	0x3c9073f8	0.017633423
176	0xbe9f8f48	-0.31164002
177	0x3df46a8d	0.119343854
178	0x3c9001f9	0.017579066
179	0xbca24f44	-0.019813187
180	0xbe7861c5	-0.24256046
181	0x3dad4c41	0.0846181
182	0x3e89568c	0.26823843
183	0xbe3d7d07	-0.18504725
184	0x3e387810	0.1801455
185	0x3dcc12f7	0.09964555
186	0x3eac2e29	0.33628967
187	0xbe835573	-0.2565113
188	0xbc81def8	-0.01585339
189	0x3cd6015d	0.026123697
190	0xbe124965	-0.1428581
191	0xbe314521	-0.17311527
192	0xbc801b5c	-0.015638046
193	0xbe7d8f87	-0.24761783
194	0xbda15b08	-0.07878691
195	0x3e81542b	0.25259528
196	0xbe8bc5dd	-0.27299395
197	0xbec6d411	-0.3883367
198	0x3e58d74f	0.21175884
199	0x3da506ce	0.080579385
200	0xbe87ddf0	-0.26536512
201	0x3dba32fc	0.09091756
202	0xbf218485	-0.63092834
203	0x3deaf144	0.11471799
204	0xbe312a77	-0.17301355
205	0xbca81bcb	-0.020521065
206	0xbe2086bb	-0.15676396
207	0x3c84b9bf	0.016201852
208	0xbd88c3ab	-0.06677946
209	0x3d87c6f2	0.06629743
210	0xbe14102a	-0.14459291
211	0x3dcef6da	0.10105677
212	0x3ddeb770	0.10874832
213	0x3eb00d77	0.34385273
214	0xbdc43b6c	-0.09581646
215	0xbf151594	-0.5823605
216	0x3e19f6b8	0.15035522
217	0xbe1d29ff	-0.15348051
218	0xbe2ce40c	-0.16883868
219	0xbdb8bffd	-0.09020994
220	0xbe02fc16	-0.12791476
221	0x3ec84851	0.39117673
222	0x3d9912c0	0.074742794
223	0x3d02c128	0.03192249
224	0x3deb019d	0.11474917
225	0x3df8838b	0.12134465
226	0x3dc06de3	0.09395959
227	0xbd201134	-0.039078906
228	0x3dd4cbd9	0.10390443
229	0xbe19c88b	-0.15017907
230	0x3e0352e4	0.12824589
231	0x3e64e909	0.22354521
232	0xbe0a63c6	-0.13514623
233	0xbec5a492	-0.3860212
234	0x3e9b6dcf	0.30357215
235	0xbe78573b	-0.24252026
236	0xbe1f4e8d	-0.15557308
237	0x3d815c98	0.06316489
238	0xbe06eccf	-0.13176273
239	0x3e0b6f07	0.13616572
240	0x3ded70bf	0.1159377
241	0x3d9d5b42	0.07683422
242	0xbdbad5af	-0.09122788
243	0x3e0bfaa4	0.1366983
244	0x3d8a033d	0.06738899
245	0xbea375f9	-0.31925943
246	0xbe3cae4f	-0.18425868
247	0x3d351f98	0.044219583
248	0xbd938d9b	-0.072047435
249	0x3e990b11	0.29891255
250	0x3e8c78a9	0.27435806
251	0x3cde70df	0.02715343
252	0xbd259824	-0.040428296
253	0x3e9057ad	0.2819189
254	0x3db7ada3	0.089686655
255	0xbe629d18	-0.22130239

sequential_11/dense_23/MatMul f4 [10, 100]
0	0xbf21d7f2	-0.6322013
1	0xbcaa49f2	-0.020787213
2	0xbe272bde	-0.16325328
3	0x3e74ff93	0.23925619
4	0x3d9b2086	0.07574563
5	0x3e0d9a12	0.13828304
6	0x3e3fcfc3	0.18731599
7	0x3bc08b91	0.0058760126
8	0x3e0cad18	0.13737905
9	0x3cbbeff3	0.022941565
10	0xbddbef35	-0.107389845
11	0x3ce86ee0	0.028373182
12	0x3e1856c3	0.14876847
13	0x3eaa10cd	0.33215943
14	0xbe733146	-0.23749265
15	0x3e90f2e9	0.28310326
16	0x3dbd70c0	0.09250021
17	0xbd8b31af	-0.06796586
18	0x3ca649c0	0.020298839
19	0x3edc6fa7	0.43053934
20	0x3e611027	0.21978818
21	0xbe7347d4	-0.23757869
22	0x3e2c4c50	0.16825986
23	0xbe2259d1	-0.15854575
24	0x3d97c52c	0.074106544
25	0xbeaa6599	-0.33280638
26	0xbd45e637	-0.048315253
27	0x3e32c447	0.17457686
28	0x3e4d0f44	0.20025355
29	0xbec5aa4d	-0.38606492
30	0x3e4532c7	0.19257651
31	0x3d75180a	0.05983738
32	0x3ccc773d	0.024959201
33	0xbe28aca4	-0.16472107
34	0x3e690ca0	0.22758722
35	0x3e5b8e78	0.21441066
36	0xbe7c18ad	-0.24618788
37	0x3d1d63c9	0.03842524
38	0xbdb30a26	-0.0874217
39	0x3d170b91	0.036876265
40	0xbe1783b3	-0.14796333
41	0xbf3958e5	-0.7240127
42	0xbe17f26d	-0.14838572
43	0x3de7b3b6	0.11313574
44	0xbe484d4e	-0.1956074
45	0x3cf26682	0.029589895
46	0xbe244ef5	-0.16045745
47	0xbede13f1	-0.4337459
48	0xbe481b49	-0.19541658
49	0x3ea2940a	0.3175357
50	0xbe8e14ed	-0.2775034
51	0x3e72b4a0	0.23701715
52	0x3ead190f	0.3380818
53	0x3e6d6c5a	0.23185864
54	0xbdf8c374	-0.12146655
55	0x3dc14a37	0.094379835
56	0xbecdd499	-0.40201262
57	0x3e1e8d86	0.15483674
58	0x3ea645f7	0.32475254
59	0xbebacb9d	-0.3648347
60	0xbb31fff4	-0.0027160617
61	0x3e87dc96	0.2653548
62	0xbdc5df34	-0.09661713
63	0xbd426613	-0.047460627
64	0x3e53af39	0.20672311
65	0xbe2d587d	-0.16928287
66	0xbdbbaf96	-0.0916435
67	0x3eb211d3	0.34779224
68	0x3ccbd6aa	0.024882633
69	0xbea7f414	-0.32803404
70	0xbe00a9cc	-0.12564772
71	0xbd857af7	-0.06517594
72	0x3e2ad249	0.1668178
73	0x3c25157b	0.010075922
74	0xbd1f2a7f	-0.038858887
75	0x3c79721c	0.01522496
76	0x3e2dd458	0.16975534
77	0x3dde4840	0.10853624
78	0xbd33b264	-0.0438713
79	0x3ddf95ec	0.10917267
80	0xbeb27a8f	-0.3485913
81	0x3e7d55d4	0.24739772
82	0xbf135dc9	-0.5756498
83	0x3c857cee	0.016294923
84	0xbf421546	-0.7581371
85	0x3de95b42	0.11394359
86	0xbe661c6c	-0.2247178
87	0x3e4bf712	0.19918469
88	0x3dcd15f0	0.1001395
89	0x3ea43c35	0.32077184
90	0x3e6aa844	0.2291575
91	0x3ebbcff5	0.36682096
92	0xbd833f9b	-0.06408616
93	0x3c0065ff	0.007836818
94	0x3ddce779	0.107863374
95	0x3d7d49f3	0.0618381
96	0xbe392db8	-0.18083847
97	0xbdd467a4	-0.103713304
98	0x3d94f488	0.07273203
99	0x3ebe82a2	0.3720904
100	0x3d19b34f	0.037524518
101	0xbee7baea	-0.45259792
102	0x3e308b5f	0.17240666
103	0x3e8890a5	0.26672855
104	0xbd6f8705	-0.058478374
105	0xbe32d484	-0.17463881
106	0xbdc7337a	-0.09726615
107	0xbe507cab	-0.20360057
108	0x3e5b624f	0.2142422
109	0xbe418d72	-0.18901613
110	0xbe6545a7	-0.22389852
111	0x3e91866b	0.28422865
112	0xb9caa781	-0.00038653243
113	0xbea46e2b	-0.321153
114	0xbe814919	-0.25251082
115	0xbee674d9	-0.45011023
116	0xbdc302cb	-0.09522017
117	0xbe1b19cc	-0.1514656
118	0x3e18155f	0.14851902
119	0x3c6f1594	0.014592547
120	0xbe52aff9	-0.2057494
121	0xbeed72e3	-0.46376714
122	0xbd189235	-0.03724881
123	0xbeba0e43	-0.36339006
124	0x3ddffc08	0.10936743
125	0xbdce7681	-0.100811966
126	0xbea415d1	-0.32047895
127	0x3d97a323	0.07404163
128	0x3e71e9f3	0.23624401
129	0xbe8e8b3d	-0.27840605
130	0x3dc3989e	0.09550594
131	0x3ecdb214	0.40174925
132	0xba88eecb	-0.0010447142
133	0xbe16d0ae	-0.14728042
134	0xbe884bf4	-0.26620448
135	0x3c39ab58	0.011332355
136	0x3f0047bd	0.50109464
137	0x3eaf9279	0.34291437
138	0x3c811383	0.015756374
139	0xbf12d701	-0.5735932
140	0x3e5c71c6	0.21527776
141	0xbe43492c	-0.19070882
142	0xbe631374	-0.2217539
143	0x3e28f885	0.16501053
144	0x3db81f6a	0.08990367
145	0xbded62bf	-0.115911
146	0xbe3647a4	-0.17800766
147	0x3e3cbdff	0.18431853
148	0x3e075278	0.13215053
149	0x3e4afcba	0.1982297
150	0xbd70f281	-0.05882502
151	0xbe8825b8	-0.26591277
152	0xbea31421	-0.31851295
153	0xbdc83264	-0.09775236
154	0x3d8d71ad	0.069064476
155	0x3e3e7d5f	0.18602513
156	0x3e095b9f	0.13413857
157	0x3e09b1a6	0.13446674
158	0xbe679c71	-0.22618271
159	0xbd9a2657	-0.07526844
160	0xbe43a354	-0.19105273
161	0xbe890c60	-0.26767254
162	0xbe3747d0	-0.17898488
163	0xbde17bf5	-0.11009971
164	0x3f0c1027	0.54712147
165	0xbe869e78	-0.26292777
166	0x3d510f13	0.051039767
167	0xbf131fcd	-0.574704
168	0x3eaa2895	0.33234087
169	0xbdedee21	-0.11617685
170	0x3f072825	0.5279563
171	0x3df5ea2d	0.12007556
172	0xbe176166	-0.14783248
173	0x3e60484d	0.2190258
174	0xbe9c3d44	-0.30515492
175	0xbd784789	-0.060615096
176	0xbebcc713	-0.36870632
177	0x3e862ba5	0.26205173
178	0xbe8a5c9a	-0.27023774
179	0x3d6a4841	0.057197813
180	0x3e904a75	0.28181806
181	0x3d365679	0.04451606
182	0xbe7591c3	-0.23981385
183	0xbdfba9c6	-0.12288241
184	0x3f0cdbb9	0.5502277
185	0xbd284b61	-0.041087512
186	0x3ee29134	0.44251406
187	0xbd94a603	-0.07258227
188	0x3ed2d820	0.41180515
189	0xbe277b9b	-0.16355745
190	0x3e273231	0.1632774
191	0xbd423584	-0.047414318
192	0xbeedf677	-0.464771
193	0xbd083b3e	-0.033259623
194	0xbdc4b52a	-0.09604867
195	0x3e9b3895	0.30316606
196	0xbe37014f	-0.17871593
197	0x3de6fb93	0.11278453
198	0xbe82f8dc	-0.2558049
199	0xbf07188c	-0.5277183
200	0x3e76e8b9	0.24112214
201	0xbca83481	-0.020532848
202	0xbe3956ff	-0.18099593
203	0x3ef2af03	0.47399148
204	0xbe2b515e	-0.16730258
205	0x3e528a4b	0.20560567
206	0xbe3a8f92	-0.1821883
207	0x3dff7f56	0.12475459
208	0x3d7bad7d	0.06144475
209	0xbeb8de9a	-0.36107332
210	0x3c94b161	0.018150987
211	0xbaaf3f15	-0.001337024
212	0xbd8a7a4c	-0.067616075
213	0x3d97a52b	0.0740455
214	0x3e854095	0.26025835
215	0xbd8c8306	-0.06860928
216	0xbe85086b	-0.25982985
217	0xbe0788bc	-0.13235754
218	0xbe789bdd	-0.24278207
219	0x3e83e3c2	0.25759703
220	0x3e441a70	0.1915071
221	0x3d660e09	0.05616573
222	0x3eac6c8c	0.33676565
223	0x3a8f36a2	0.0010926316
224	0xbeb4ab7b	-0.3528708
225	0x3e364bed	0.17802401
226	0xbdbfe75e	-0.09370302
227	0xbe321293	-0.17389898
228	0x3d4df102	0.05027867
229	0xbee141bc	-0.43995464
230	0xbe0d7e1c	-0.13817638
231	0xbe9cff44	-0.30663502
232	0x3e3a2a9a	0.18180314
233	0xbe0a76e4	-0.13521916
234	0x3e608b78	0.21928203
235	0x3ea91b1d	0.33028498
236	0x3d13d02c	0.0360872
237	0xbd0fc399	-0.035098646
238	0xbde55573	-0.11197939
239	0x3ddb7e6a	0.10717471
240	0xbc842ff0	-0.01613614
241	0xbe3fca2e	-0.18729469
242	0x3ddb8fb8	0.107207716
243	0xbd8b41a1	-0.06799627
244	0xbe5b7b05	-0.21433647
245	0xbd796161	-0.060883883
246	0x3e3b4933	0.18289642
247	0x3ec96749	0.39336613
248	0xbe6f6729	-0.23379196
249	0x3bc0de70	0.0058858916
250	0x3df5e4c9	0.12006528
251	0x3eabfb0f	0.3358998
252	0xbd41ebe6	-0.04734411
253	0xbe3a3870	-0.18185592
254	0xbe49781e	-0.19674727
255	0xbd872ab9	-0.065999456

sequential_11/conv2d_33/Conv2D f4 [32, 3, 3, 1]
0	0x3f45ec88	0.77314043
1	0x3f8b1276	1.0865009
2	0xbe7bb7cb	-0.2458183
3	0xbfc29d3e	-1.5204237
4	0xbf9c3b54	-1.2205606
5	0xbfaf8e27	-1.3715256
6	0x3f2796bf	0.65464395
7	0x3ec895e1	0.3917685
8	0x3e219a18	0.15781438
9	0x3f2d5dca	0.67721236
10	0x3ece0b51	0.4024301
11	0x3eb972ab	0.36220297
12	0xbe4df6f2	-0.20113733
13	0xbe502fc3	-0.2033072
14	0x3c31380d	0.010816586
15	0x3f3cac7c	0.7370069
16	0x3ee3eac9	0.44515064
17	0xbe7f2376	-0.24915871
18	0xbd2f750d	-0.042836238
19	0x3dde23b3	0.10846653
20	0xbe0a5405	-0.13508613
21	0xbfd828ee	-1.6887491
22	0xbfac3fbe	-1.3456953
23	0xbf370bf4	-0.71502614
24	0xbf16198a	-0.5863272
25	0x3f9f5b7f	1.2449797
26	0x3e9b2e73	0.30308875
27	0xbf885491	-1.0650808
28	0xbf7e4d19	-0.9933639
29	0x3e81c995	0.25349107
30	0x3f4b2d37	0.7936587
31	0x3f68db74	0.9095986
32	0xbeef6792	-0.46758705
33	0xbf116ef1	-0.5680991
34	0xbec6a1f2	-0.3879543
35	0x3f06b5be	0.52621067
36	0x3def6698	0.1168949
37	0xbf90ab0a	-1.1302197
38	0xbf0d8ef9	-0.55296284
39	0xbfe730d9	-1.8061782
40	0x3eb01409	0.34390286
41	0x3ea6f2da	0.32607156
42	0xbe26245b	-0.16224806
43	0x3fabb8e7	1.3415803
44	0xbe92399c	-0.28559577
45	0x3da3c806	0.07997136
46	0xbe8bf736	-0.27337044
47	0xbf145534	-0.5794251
48	0x3e9438ff	0.28949735
49	0x3f788aa7	0.97086567
50	0xbf4f5b97	-0.8099913
51	0x3ec72a51	0.38899472
52	0xbef02d87	-0.46909735
53	0xbf8d5a3e	-1.1043165
54	0x3ebd53a6	0.3697788
55	0xbf523836	-0.8211702
56	0x3ea758da	0.32684976
57	0x3f71bba6	0.94426954
58	0x3f1cb6d2	0.6121646
59	0xbe6667b0	-0.22500491
60	0xbf2d04e9	-0.6758562
61	0x3ef72e3b	0.4827746
62	0xbbcefd5d	-0.0063168244
63	0xbea2d25a	-0.3180111
64	0xbf0686aa	-0.5254923
65	0xbc9a9b58	-0.018872902
66	0xbf98fa7c	-1.1951442
67	0x3f87f9cc	1.0623107
68	0x3efc4664	0.49272454
69	0xbfaeb634	-1.3649354
70	0x3f0da055	0.5532277
71	0x3ef13387	0.47109625
72	0xbe85c214	-0.26124632
73	0xbf1b7a07	-0.60733074
74	0x3dbc90e3	0.092073224
75	0xbcb78089	-0.022400158
76	0xbf7319ab	-0.9496104
77	0xbf246893	-0.6422207
78	0x3ebec705	0.37261215
79	0x3f4a2b10	0.7897196
80	0xbf52211d	-0.82081777
81	0x3caf07ef	0.021366088
82	0x3e36ecfd	0.17863841
83	0x3ed56e6c	0.41685808
84	0xbe672d4f	-0.22575878
85	0x3f48de97	0.78464645
86	0x3e41d7ac	0.18929929
87	0xbfd64837	-1.6740788
88	0x3f3844c5	0.71979934
89	0xbe547a20	-0.20749712
90	0xbda475c7	-0.08030277
91	0xbe55029e	-0.2080178
92	0x3f665f2a	0.8998896
93	0xbf009916	-0.5023359
94	0xbf25d812	-0.6478282
95	0x3d727724	0.059195653
96	0x3f5e099e	0.86733425
97	0xbf98969f	-1.1920966
98	0x3def8e49	0.116970606
99	0xbf03235a	-0.5122582
100	0x3e480d84	0.19536406
101	0x3e4eed7d	0.20207782
102	0x3e6aeb0b	0.22941224
103	0xbfa6fcc6	-1.304589
104	0xbf0c0d30	-0.5470762
105	0x3f181851	0.59412104
106	0x3ec5e213	0.38649043
107	0x3ecf859b	0.4053162
108	0x3f71c89f	0.9444675
109	0xbf251fa2	-0.6450139
110	0xbd4ebdf1	-0.05047411
111	0xbcdaa41f	-0.026689587
112	0xbeee9f43	-0.46605882
113	0xbf29ee7a	-0.6637951
114	0xbeef88c1	-0.46784022
115	0xbf1ec1e0	-0.6201458
116	0xbec8e98f	-0.3924069
117	0xbe330adf	-0.17484616
118	0x3e89c84e	0.26910633
119	0x3f2210aa	0.6330668
120	0xbf9597ea	-1.1686985
121	0xbcabcab6	-0.020970684
122	0xbe13d35a	-0.14436093
123	0x3ca90f77	0.020637257
124	0x3e980321	0.29689887
125	0x3e60bcff	0.21947096
126	0xbfacf04f	-1.3510836
127	0x3ec4f50a	0.384682
128	0x3e0175f8	0.12642658
129	0xbe28a8b4	-0.16470605
130	0x3f2d211e	0.6762866
131	0x3ee4f0de	0.44715017
132	0x3f7fd82e	0.9993924
133	0x3ce38457	0.027773065
134	0xbec689bb	-0.38776955
135	0x3de6825e	0.11255334
136	0xbe5df56e	-0.21675655
137	0xbebd3525	-0.3695461
138	0xbfb6fa33	-1.4295105
139	0xbed261dd	-0.4109029
140	0x3ecca59a	0.39970094
141	0x3fabea0d	1.3430802
142	0x3ec144b8	0.3774774
143	0xbdb522b9	-0.088445134
144	0x3ed98b39	0.4248903
145	0x3e8ce4f4	0.27518427
146	0x3ef9ac94	0.4876448
147	0xbdf4003f	-0.119141094
148	0x3e044a64	0.12919003
149	0xbf6c3ca8	-0.92280054
150	0xbf11e87c	-0.5699537
151	0x3f2a5f7f	0.66551965
152	0xbd2079a5	-0.03917851
153	0x3d79182e	0.060814075
154	0x3ee6f20a	0.45106536
155	0xbea401e6	-0.32032698
156	0x3eee4bf0	0.4654231
157	0xbeae0e5a	-0.33995324
158	0x3d6970da	0.05699239
159	0x3ed7c8ac	0.42145288
160	0xbd0ee744	-0.03488852
161	0xbf1b7bc6	-0.6073574
162	0xbf266207	-0.6499333
163	0xba871d29	-0.0010308373
164	0xbe15e15a	-0.14636746
165	0xbebc99fb	-0.36836228
166	0xbf0cabcb	-0.54949635
167	0xbf3263be	-0.69683444
168	0x3cd71148	0.026253358
169	0x3e99c220	0.30030918
170	0xbf018987	-0.50600475
171	0x3f91a6c6	1.137902
172	0xbf7c1edd	-0.98484594
173	0xbe804105	-0.25049606
174	0xbf042dc9	-0.5163236
175	0x3f462cc7	0.77412075
176	0xbebfefc9	-0.3748763
177	0xbf5342f9	-0.8252407
178	0x3cede301	0.029038908
179	0xbe9e9723	-0.30974683
180	0xbf6691b4	-0.90066075
181	0xbea97418	-0.33096385
182	0xbe9b9af0	-0.30391645
183	0xbce225ef	-0.027605979
184	0xbee66abe	-0.45003313
185	0x3eb9017c	0.36133945
186	0x3f82754a	1.0192044
187	0xbf7107b2	-0.9415237
188	0xbf0e061f	-0.5547809
189	0x3e36a3d6	0.17835936
190	0xbd929464	-0.071572095
191	0x3f261697	0.6487822
192	0x3f04c988	0.5187001
193	0xbf1c3007	-0.61010784
194	0xbde0938a	-0.10965641
195	0xbf685b4b	-0.907643
196	0x3ee25c8b	0.4421123
197	0xbf3b4aa8	-0.7316079
198	0xbed98f75	-0.42492262
199	0xbef60168	-0.48047948
200	0xbe607f29	-0.21923508
201	0x3f1e3413	0.6179821
202	0xbf156027	-0.5834984
203	0xbd0b6303	-0.03402997
204	0x3f397794	0.72448087
205	0xbf8d0473	-1.1016983
206	0x3ed999ce	0.42500156
207	0x3e2e7c1f	0.17039536
208	0xbe9c5f33	-0.3054138
209	0x3e8ec174	0.27881968
210	0x3f24605f	0.6420955
211	0xbf25d52f	-0.6477842
212	0x3db1ecf9	0.08687777
213	0x3f26d536	0.65169084
214	0xbf66bb85	-0.9012988
215	0xbcb0db4c	-0.021588944
216	0x3e761a00	0.24033356
217	0x3f050407	0.5195927
218	0x3f1d63bf	0.61480325
219	0xbf564db2	-0.83712304
220	0xbf275138	-0.65358305
221	0x3e8a7e6d	0.2704958
222	0x3ee55b83	0.4479638
223	0xbf491f92	-0.785638
224	0xbec771e5	-0.38954082
225	0xbe9888b8	-0.29791808
226	0x3ef8dbd8	0.48605227
227	0x3d697230	0.056993663
228	0x3fd805ed	1.6876808
229	0x3defecd5	0.11715094
230	0xbe0b91a7	-0.1362978
231	0xbf9634e9	-1.1734897
232	0xbf8ec4c1	-1.1153795
233	0xbde11c3b	-0.10991713
234	0x3e00ba2d	0.1257102
235	0xbf17c9a4	-0.59292054
236	0xbe30cac0	-0.17264843
237	0xbe14954d	-0.14510079
238	0xbe3e8a6b	-0.1860749
239	0xbe83941f	-0.25698945
240	0x3f4abf60	0.79198265
241	0x3e03cfcb	0.12872235
242	0x3e4a8ae9	0.19779553
243	0x3f098394	0.537164
244	0xbae980f5	-0.0017814921
245	0xbea257ed	-0.31707707
246	0xbe6e4145	-0.23267086
247	0x3e63d512	0.22249249
248	0xbf1c035f	-0.60942644
249	0xbd676916	-0.056496702
250	0x3f48f4b3	0.7849838
251	0xbe166591	-0.14687182
252	0x3f0aa1c2	0.5415307
253	0x3e88c54b	0.26713023
254	0x3f058205	0.5215152
255	0xbe1687a2	-0.14700177

sequential_11/conv2d_34/Conv2D f4 [64, 3, 3, 32]
0	0xbe0d8e55	-0.13823827
1	0x3e59d2e5	0.21271856
2	0xbea2e3d3	-0.3181444
3	0xbe9e8929	-0.3096402
4	0xbe496379	-0.19666852
5	0xbcdffc09	-0.02734186
6	0x3d306bf5	0.043071706
7	0xbe47504a	-0.19464222
8	0xbdbb746e	-0.091530666
9	0x3dd4741e	0.1037371
10	0x3bdf54c6	0.0068155257
11	0x3dbbde8a	0.09173305
12	0x3d50a1f3	0.050935697
13	0xbd26aa3c	-0.040689692
14	0xbd8b30fa	-0.06796451
15	0xbe28c14a	-0.16479984
16	0xbc7c1f75	-0.015388359
17	0x3c62cb6c	0.013842445
18	0x3d672605	0.056432743
19	0xbdb0b7ad	-0.086287834
20	0xbe465fb5	-0.19372447
21	0x3d8b05c1	0.06788207
22	0x3be2cc33	0.006921315
23	0xbc4df0f6	-0.012569657
24	0x3b93f83e	0.0045156768
25	0xbdfde97a	-0.12398048
26	0x3d3c5808	0.04598239
27	0x3ca4b567	0.02010603
28	0x3d85e6be	0.06538151
29	0xbe2c60d6	-0.16833815
30	0x3b3d0833	0.0028843998
31	0x3dbdd9f7	0.09270089
32	0xbe2fddc7	-0.17174445
33	0x3c81bbb1	0.015836569
34	0xbc8f6f51	-0.017509134
35	0x3d62803b	0.05529807
36	0xbe0c1624	-0.13680321
37	0xbe203c7e	-0.15648076
38	0x3d384079	0.04498336
39	0xbe082169	-0.13293995
40	0xbc8e097b	-0.017338505
41	0x3d72293f	0.059121367
42	0xbe16fdc7	-0.14745246
43	0xbc1de05c	-0.009636011
44	0x3bf901b2	0.007599079
45	0x3ced9b5b	0.029004743
46	0x3e6fb7b2	0.23409918
47	0x3bb85751	0.0056256433
48	0xbc3d6cf5	-0.011561622
49	0x3e3a1828	0.18173277
50	0xbd08db51	-0.03341228
51	0xbd0e152d	-0.034688164
52	0xbdc07b62	-0.093985334
53	0x3df522b3	0.11969509
54	0x3d81ecfe	0.06344031
55	0xbc715185	-0.014728908
56	0x3cea7f0e	0.028625038
57	0x3ce584ae	0.028017368
58	0x3e955219	0.29164198
59	0x3d73ffa2	0.059569962
60	0xbdc8b3f5	-0.09799949
61	0xbdedd378	-0.116126
62	0xbe110ae3	-0.14164309
63	0xbd525cb1	-0.05135793
64	0x3dd4d51c	0.1039221
65	0xbc8d091a	-0.017216254
66	0xbe2be7a9	-0.1678759
67	0x3d31b151	0.043381993
68	0xbadcf051	-0.0016856288
69	0x3d6a8245	0.05725314
70	0xbd8862f2	-0.06659497
71	0xbd546b98	-0.051860422
72	0xbe7a753b	-0.24458782
73	0x3dd67a5f	0.10472559
74	0x3d3c74b5	0.046009738
75	0xbd069b7d	-0.03286313
76	0xbbf0fb40	-0.00735417
77	0xbca92664	-0.020648189
78	0xbd1efb03	-0.038813602
79	0xbdb3d04c	-0.08779964
80	0x3dbf0316	0.093267605
81	0x3b20c93e	0.0024534012
82	0xbde2ef88	-0.11080843
83	0xbc041ae0	-0.008063048
84	0xbe90c648	-0.28276277
85	0xbd222ea7	-0.039595272
86	0xbe08fad5	-0.13376935
87	0xbbf0e170	-0.007351093
88	0xbd182622	-0.03714574
89	0x3dc5c9be	0.0965762
90	0x3d958120	0.07300019
91	0xbe2f5693	-0.17122869
92	0x3b01c69d	0.001980222
93	0x3dc1fe0b	0.09472283
94	0xbd7e8261	-0.062136058
95	0x3d75e73d	0.06003498
96	0x3e1cfac0	0.15330029
97	0x3ddb4a2a	0.10707505
98	0xbe061caa	-0.13096872
99	0xbbd4ef72	-0.0064982707
100	0xbe739505	-0.23787315
101	0x3ccca1be	0.024979468
102	0x3d0eb1f9	0.034837697
103	0xbeaa48a0	-0.33258533
104	0x3d7decdb	0.06199346
105	0x3d0d5194	0.034501627
106	0xbe63349e	-0.2218804
107	0xbe21817e	-0.15772054
108	0x3e1d85e8	0.15383112
109	0xbeabb760	-0.33538342
110	0x3e25e0e6	0.16199073
111	0x3cc5f23e	0.024163362
112	0x3cc93d5f	0.024565397
113	0xbe1cdede	-0.15319392
114	0xbcca4a01	-0.024693491
115	0xbde5619b	-0.112002574
116	0xbe3aef51	-0.18255354
117	0x3db5b788	0.088728964
118	0xbe5ba792	-0.21450642
119	0xbd4463da	-0.04794679
120	0x3d987d38	0.074457586
121	0x3e08f30b	0.13373964
122	0x3cae291c	0.021259837
123	0xbde41dce	-0.11138497
124	0x3df216c3	0.11820748
125	0xbc4cdcaf	-0.012503787
126	0xbe8e2e7e	-0.27769846
127	0x3e48367c	0.19552034
128	0xbe140fae	-0.14459106
129	0x3db23328	0.087011635
130	0xbe09e7e0	-0.1346736
131	0xbd92d98f	-0.07170402
132	0xbea11da6	-0.31467932
133	0x3d78e1fe	0.060762398
134	0x3d680f8a	0.056655444
135	0xbd3f97ee	-0.04677575
136	0xbcaf51ee	-0.021401372
137	0xbc983014	-0.018577613
138	0x3dac8795	0.08424298
139	0xbe6ccdd7	-0.23125397
140	0xbe03ba1c	-0.12863964
141	0xbd6e68dc	-0.05820547
142	0xbd811714	-0.0630323
143	0xbe1ca2ed	-0.15296526
144	0x3cb36946	0.021900784
145	0x3d9ca6c4	0.076489955
146	0x3d800d60	0.06252551
147	0xbe290989	-0.16507544
148	0x3db473cd	0.0881115
149	0xbd49638a	-0.049167193
150	0x3e01eb72	0.12687472
151	0x3b145ace	0.0022637132
152	0xbd87b6b1	-0.066266425
153	0xbe250b55	-0.16117604
154	0xbd8d4d04	-0.06899455
155	0x3df79aca	0.120900705
156	0xbe313ce6	-0.17308387
157	0x3dc849f2	0.09779729
158	0x3d931290	0.07181275
159	0x3da31efc	0.07964894
160	0xbdc5670e	-0.09638797
161	0x3e7fac3f	0.2496805
162	0xbd8fd9be	-0.07023953
163	0x3b396436	0.002828849
164	0x3d3eb206	0.046556495
165	0x3e41f4e8	0.1894108
166	0x3e4bd922	0.19907048
167	0xbdbc7f6b	-0.092039905
168	0x3a610313	0.0008583527
169	0xbe0c11b8	-0.13678634
170	0x3d69a970	0.057046354
171	0xbdc58844	-0.09645131
172	0x3ddb0eb1	0.106961615
173	0x3dccad1d	0.09993956
174	0xbd1680dc	-0.036743984
175	0xbe49bc2c	-0.19700688
176	0x3e3bbb96	0.18333277
177	0xbdcc6277	-0.09979718
178	0x3d24cc36	0.040233813
179	0x3d16d139	0.036820624
180	0x3a92cc9a	0.0011199892
181	0xbd82f4e1	-0.06394363
182	0x3ce66194	0.0281227
183	0x3d10b735	0.03533097
184	0xbe416fb9	-0.18890275
185	0xbcd8610c	-0.026413463
186	0xbe92443d	-0.28567687
187	0x3b83de99	0.0040243384
188	0x3ca9ec21	0.020742478
189	0x3d87e6ee	0.06635843
190	0x3b8de955	0.004330794
191	0xbe1cfada	-0.15330067
192	0xbdebc741	-0.11512614
193	0x3c2378c5	0.009977524
194	0xbdb8d4ce	-0.09024964
195	0x3e1caf33	0.15301208
196	0xbd3e471f	-0.046454545
197	0xbd85228a	-0.065007284
198	0x3bd4130c	0.006471997
199	0x3ef970d7	0.48718902
200	0xbd435a97	-0.047693815
201	0x3ea583b0	0.32327032
202	0xbde851c7	-0.11343723
203	0xbefdb277	-0.4955022
204	0xbdaaf271	-0.08347023
205	0x3eaecfce	0.34142917
206	0xbe1c504e	-0.15265009
207	0xbec224e1	-0.3791876
208	0x3e0f7e6a	0.14013067
209	0x3d9bfaf4	0.07616225
210	0xbd09e5bf	-0.03366637
211	0xbdcb981c	-0.09941122
212	0xbc66b706	-0.014081722
213	0xbe0a97fe	-0.13534543
214	0xbe0a6f6e	-0.1351907
215	0xbe5a14e7	-0.21297036
216	0x3d4c7c98	0.04992351
217	0x3d4e712e	0.050400905
218	0xbf14e3bf	-0.5816001
219	0xbcebd888	-0.028789774
220	0xbd7c4dec	-0.06159775
221	0x3c925631	0.017863365
222	0x3e833f5c	0.25634277
223	0xbe17aea6	-0.14812717
224	0xbdf47f31	-0.11938322
225	0x3d589136	0.05287286
226	0x3e14ceef	0.14532064
227	0xbd81596e	-0.063158855
228	0x3e995046	0.29944056
229	0x3e9c21aa	0.30494434
230	0xbea49aba	-0.32149297
231	0xbdd48b98	-0.10378188
232	0xbd5ca57d	-0.05386876
233	0xbd6ca516	-0.057774626
234	0xbe4d68b1	-0.20059468
235	0xbe86f2b7	-0.26357052
236	0xbd7bf11a	-0.06150923
237	0x3d82ca21	0.06386209
238	0x3e76e220	0.24109697
239	0x3d19b241	0.03752351
240	0xbb86aa36	-0.004109646
241	0x3e3e0d11	0.18559672
242	0xbe10ee17	-0.14153324
243	0xbd95afd4	-0.07308927
244	0xbb103bca	-0.0022008293
245	0xbe4a59c0	-0.197608
246	0x3e71cd5a	0.23613492
247	0x3e054eef	0.13018392
248	0xbe0c3fb4	-0.13696176
249	0xbe2c88ae	-0.16849014
250	0xbdb436d8	-0.08799523
251	0x3ccaf010	0.024772674
252	0xbe60d3f1	-0.21955849
253	0x3c1be190	0.0095142275
254	0x3d2f6a2f	0.042825874
255	0xbe25459c	-0.16139835

sequential_11/conv2d_35/Conv2D f4 [64, 3, 3, 64]
0	0x3da68adb	0.08131953
1	0xbe8e1d1e	-0.2775659
2	0x3e28e98c	0.16495341
3	0x3e3dbfb8	0.18530166
4	0x3d950130	0.07275617
5	0x3d550cfb	0.052014332
6	0xbd163b10	-0.03667742
7	0xbd94fd62	-0.072748914
8	0x3d6c7f92	0.057738848
9	0xbe541cf6	-0.20714173
10	0xbe390a93	-0.1807044
11	0x3c3d7949	0.011564561
12	0x3e167ede	0.14696833
13	0x3e140e7b	0.14458649
14	0xbd711f45	-0.05886771
15	0x3d364b7f	0.044505592
16	0x3de9efb7	0.11422675
17	0xbe0fce6f	-0.14043592
18	0x3bb70971	0.0055858423
19	0xbddcc8bc	-0.107804745
20	0xbdcd689b	-0.100297175
21	0x3eaf1b72	0.34200627
22	0x3dd209f5	0.102558054
23	0xbe1894c7	-0.14900504
24	0xbdb140a1	-0.08654905
25	0xbd8978df	-0.067125075
26	0xbe465f27	-0.19372235
27	0x3c8b9ae4	0.017041631
28	0xbd2846aa	-0.041083016
29	0xbcd01e24	-0.025404997
30	0xbe81e6f2	-0.2537151
31	0xbdb9f22c	-0.09079394
32	0xbdc1179d	-0.09428332
33	0x3d80eaf7	0.06294816
34	0x3e473594	0.19454032
35	0xbe42ffae	-0.19042847
36	0xbc84e140	-0.016220689
37	0x3a5d1f10	0.00084351096
38	0x3d85c717	0.06532114
39	0xbe4c6b15	-0.19962724
40	0xbe280c33	-0.16410904
41	0x3e220692	0.15822819
42	0x3c5354d8	0.012898646
43	0x3d226897	0.039650526
44	0x395c165c	0.00020989164
45	0xbe5b4fe6	-0.21417198
46	0xbc4a4ace	-0.012346936
47	0x3d11d484	0.03560306
48	0x3e14a22a	0.14514986
49	0x3e4d72d8	0.2006334
50	0x3d8e57ba	0.06950326
51	0x3e92173e	0.28533357
52	0x3d0d0230	0.034425914
53	0xbdedf824	-0.11619595
54	0x3c03f6d5	0.008054455
55	0x3e53d472	0.2068651
56	0x3db6548a	0.08902843
57	0xbdd57f36	-0.10424654
58	0x3d35edde	0.0444163
59	0x3d2d53b4	0.042316154
60	0xbd33b77a	-0.04387615
61	0xbd7aee66	-0.06126251
62	0xbdaa3b8b	-0.08312138
63	0x3da0ea07	0.07857137
64	0xbd472e46	-0.048628114
65	0x3ccbc58c	0.024874471
66	0xbcbff1fa	-0.023430813
67	0x3d9ec73d	0.077528454
68	0x3d8c7314	0.06857887
69	0x3d6e0a3f	0.05811524
70	0xbe090e2a	-0.1338431
71	0x3c8d23d7	0.017229004
72	0xbc051f6e	-0.008125169
73	0x3d8bb902	0.06822397
74	0xbd9acca5	-0.07558564
75	0x3d2234d5	0.039601166
76	0x3d0fb5d6	0.03508552
77	0x3d99c092	0.07507433
78	0x3c40d930	0.011770532
79	0xbc81a8e9	-0.015827613
80	0x3d7aafc0	0.061202765
81	0x3e1b68b1	0.15176655
82	0xbd92885a	-0.07154913
83	0x3c02ddf4	0.007987488
84	0x3d922646	0.07136206
85	0xbc3b3059	-0.011425101
86	0xbd4de49a	-0.05026684
87	0xbce99ef3	-0.028518176
88	0xbd96f142	-0.07370235
89	0x3d36491f	0.044503327
90	0xbb931d4f	-0.004489578
91	0x3d6ee687	0.058325317
92	0x3e3e08ab	0.18557994
93	0xbcc59fe5	-0.024124095
94	0xbd824613	-0.06361022
95	0x3b874382	0.0041279206
96	0x3c9e0b12	0.019292388
97	0xbc81c7b8	-0.015842304
98	0xbe3e5c7f	-0.18589972
99	0x3e027cfb	0.12742989
100	0x3df2b193	0.11850276
101	0x3cf2c7df	0.029636322
102	0xbc1e4c34	-0.009661723
103	0xbc4640f4	-0.012100447
104	0xbcaac88b	-0.02084758
105	0x3cd4a989	0.025959747
106	0x3d234296	0.039858423
107	0x3c0be251	0.008537845
108	0x3dc932c8	0.09824139
109	0xbd538630	-0.051641643
110	0xbdf0586f	-0.11735617
111	0xbcc51bda	-0.024061132
112	0x3dd53980	0.10411358
113	0x3e00c9fa	0.12577048
114	0xbd74cd94	-0.059766367
115	0xbe266228	-0.16248381
116	0xbbee32ff	-0.007269263
117	0x3d95d20d	0.07315455
118	0xbd0694bc	-0.032856688
119	0xbde848ec	-0.11342034
120	0xbe018ebc	-0.12652105
121	0xbd665e1c	-0.056242093
122	0xbdbe2e26	-0.09286146
123	0x3d9136e0	0.07090545
124	0x3ba716d4	0.005099157
125	0x3bd052b9	0.0063575176
126	0x3d01c50a	0.03168205
127	0xbda09c0f	-0.07842266
128	0x3cc723fd	0.024309153
129	0xbd8d7960	-0.06907916
130	0x3c28f912	0.010313289
131	0x3db4bc82	0.088250175
132	0x3dab15d1	0.083537705
133	0xbb1a452b	-0.0023539762
134	0xbdb97674	-0.09055796
135	0xbe255bbb	-0.16148274
136	0xbbbca00c	-0.0057563838
137	0xbc872266	-0.016495895
138	0xbc2d7f88	-0.010589488
139	0x3ac388c0	0.0014918074
140	0x3c2a745b	0.010403718
141	0x3d07a62e	0.033117466
142	0x3c228e64	0.009921644
143	0xbd46644c	-0.048435494
144	0x3dbf79c5	0.093493976
145	0x3baa201b	0.0051918156
146	0x3d9feedd	0.078092314
147	0xbdd9d53f	-0.106363766
148	0x3db5c082	0.088746086
149	0xbd6b8fd5	-0.057510216
150	0xbb8541da	-0.004066688
151	0xbbd74637	-0.0065696496
152	0x3c9e4392	0.01931933
153	0xbceb1435	-0.028696159
154	0xbdaf08eb	-0.08546623
155	0xbdcaf8cc	-0.099107355
156	0xbdac6ed3	-0.084195755
157	0xbc2c0a49	-0.010500499
158	0x3c9bdadf	0.019025264
159	0xbd9d830d	-0.076910116
160	0x3c734694	0.01484837
161	0x3dd1d3d6	0.102454826
162	0x3ca4b873	0.020107483
163	0x3e08d9d8	0.13364351
164	0xbd1d3cc3	-0.038388025
165	0xbc8da6ec	-0.017291509
166	0x3d6a2b43	0.057170164
167	0xbd9f3b03	-0.077749275
168	0xbd9b42ee	-0.07581125
169	0xbcb8b20b	-0.022545835
170	0x3d32b182	0.043626316
171	0x3e1ec105	0.15503319
172	0xbdcaa24d	-0.09894238
173	0xbdaa83d7	-0.08325928
174	0xbdac1d14	-0.08403984
175	0x3d95291c	0.072832316
176	0xbc99a1fc	-0.018753998
177	0x3dbaf969	0.091296025
178	0x3cd3acd6	0.02583925
179	0xbd1d5f89	-0.038421188
180	0xbd3a40ad	-0.045471836
181	0x3cc1b627	0.023646427
182	0x3d412761	0.047156695
183	0x3cd21543	0.025644904
184	0x3d667e31	0.05627269
185	0xbda6d752	-0.08146538
186	0xbd58402c	-0.052795574
187	0xbccd89e7	-0.025090171
188	0x3da6a41b	0.081367694
189	0x3d7d57ea	0.06185142
190	0xbd0a7a37	-0.03380796
191	0x3c1bdc37	0.0095129525
192	0x3d917ddc	0.07104084
193	0xbe0417c5	-0.12899692
194	0x3e1758a1	0.14779903
195	0x3d94a926	0.07258825
196	0x3d9f5fe6	0.07781963
197	0x3de16409	0.11005408
198	0x3da156d4	0.07877889
199	0xbd08c029	-0.033386383
200	0x3d325179	0.04353473
201	0x3cac7e48	0.02105631
202	0xbd800b3a	-0.06252141
203	0x3d816c9d	0.063195445
204	0xbd8b8bf5	-0.06813804
205	0xbdbfa073	-0.09356775
206	0xbc91783b	-0.017757526
207	0xbc94ccca	-0.018164057
208	0xbd684d97	-0.05671462
209	0xbd4e1423	-0.050312173
210	0xbd673044	-0.056442514
211	0xbe3dc5af	-0.18532442
212	0x3d72c229	0.059267197
213	0xbe185bac	-0.1487872
214	0x3d867dc8	0.065669596
215	0xbd732591	-0.059361998
216	0xbdef5254	-0.11685625
217	0xbe1aae83	-0.15105633
218	0xbe23b6db	-0.15987723
219	0x3e2830a3	0.16424803
220	0xbc324a42	-0.010881962
221	0xbd6e56de	-0.05818831
222	0xbd06caff	-0.032908436
223	0x3d724e04	0.059156433
224	0xbbec664a	-0.0072143422
225	0xbdf0bd7a	-0.1175489
226	0xbe058813	-0.1304019
227	0x3d8c93ac	0.06864104
228	0xbe1379a2	-0.14401868
229	0xbd9e8974	-0.07741061
230	0x3dd9e03c	0.106384724
231	0xbd87af30	-0.06625211
232	0xbe02aaea	-0.12760511
233	0xbea73da2	-0.3266421
234	0x3dee2f41	0.11630107
235	0x3e03ecbf	0.1288328
236	0xbe7e6b5a	-0.24845639
237	0xbaa51c48	-0.001259693
238	0xbc9c7f42	-0.01910365
239	0xbd74e989	-0.05979303
240	0xbce629ed	-0.028096164
241	0xbdf47e8c	-0.119381994
242	0xbe5bfa1f	-0.21482132
243	0xbbd28480	-0.0064244866
244	0x3d336c1c	0.043804273
245	0xbd09627d	-0.03354119
246	0xbe448d17	-0.19194447
247	0xbe9f581f	-0.3112192
248	0xbe31cf4d	-0.17364235
249	0x3dae9970	0.0852536
250	0x3d810f94	0.063017994
251	0x3e04d61d	0.12972303
252	0x3cd81921	0.02637917
253	0xbdc5d046	-0.09658866
254	0x3d5d2698	0.053991884
255	0x3d867252	0.065647736
