Models/final_model_3.tflite (tflite, 256988 bytes, 10 tensors)

sequential_12/dense_25/BiasAdd/ReadVariableOp f4 [10]
0	0xbe398e5e	-0.18120715
1	0x3e322050	0.17395139
2	0xbe8de907	-0.27716848
3	0x3da4951a	0.08036251
4	0xbe2360e6	-0.15954933
5	0x3e64c0a7	0.22339116
6	0xbdb3a371	-0.08771408
7	0x3da6938e	0.081336126
8	0x3d17b348	0.03703621
9	0x3de0616c	0.10956082

sequential_12/dense_24/BiasAdd/ReadVariableOp f4 [100]
0	0x3da3fe44	0.08007482
1	0xbd89556e	-0.067057475
2	0x3def96bf	0.116986744
3	0x3c8a5f9b	0.016891291
4	0xbcf9063f	-0.030398486
5	0x3c44ca9d	0.012011197
6	0xbca370dd	-0.019951278
7	0xbd59af6b	-0.053145807
8	0x3e420aa7	0.18949376
9	0x3c8f3339	0.01748048
10	0x3d643953	0.05571873
11	0xbd92722b	-0.07150682
12	0xbc949a0e	-0.018139865
13	0xbdb161d7	-0.086612396
14	0xbd1e5cd4	-0.038662747
15	0x3cbf9440	0.02338612
16	0xbc9a113d	-0.018807048
17	0x3d6da9f7	0.05802342
18	0xbcd111ef	-0.025521247
19	0x3de56f20	0.11202836
20	0x3e0b54c2	0.13606551
21	0xbd19c5c2	-0.037542112
22	0xb88fc8c1	-6.856165e-05
23	0x3eaa9720	0.33318424
24	0xbba26273	-0.0049555837
25	0xbd28ba6a	-0.041193403
26	0x3e37f94d	0.17966194
27	0xbd87ef13	-0.06637397
28	0x3e1d3e3f	0.15355776
29	0x3e8e5548	0.2779944
30	0x3b2885ce	0.002571452
31	0xbd48d004	-0.049026504
32	0x3d644aa5	0.05573525
33	0x3d614382	0.05499602
34	0x3e1fad2f	0.15593408
35	0x3de300e2	0.11084153
36	0x3e00ceac	0.12578839
37	0x3e5ca245	0.21546276
38	0x3d85e4d7	0.06537788
39	0xbd11afc7	-0.035568025
40	0x3dc552e2	0.09634949
41	0xbd13ff48	-0.036132127
42	0xbcd6646b	-0.02617093
43	0x3e7b0573	0.24513797
44	0xbca0efa2	-0.019645516
45	0x3e2b4c5c	0.16728348
46	0x3e4ce895	0.20010598
47	0x3dae3b33	0.08507385
48	0x3d663e60	0.05621183
49	0x38c4f94e	9.392445e-05
50	0x3af31e10	0.0018548388
51	0x3e1473a3	0.14497237
52	0xbd4b0afd	-0.049571026
53	0x3e968b08	0.29402947
54	0xbc0a5b89	-0.008444675
55	0xbdb145bb	-0.08655878
56	0xbc36a837	-0.011148504
57	0x3d3385ab	0.043828648
58	0x3db9e0d2	0.09076084
59	0x3d3a5842	0.045494325
60	0x3da1b174	0.078951746
61	0x3e1d40aa	0.15356699
62	0x3e114500	0.14186478
63	0xbcf7f44e	-0.03026786
64	0x3e581b94	0.2110427
65	0x3bff2f1c	0.0077875983
66	0x3d62e72f	0.055396255
67	0x3e14d1cb	0.14533155
68	0xbe031235	-0.12799914
69	0x3ec6b5fc	0.38810718
70	0x3d2ba5d4	0.041906193
71	0x3e41ed81	0.18938257
72	0x3cc94df8	0.024573311
73	0xbc0f6070	-0.00875102
74	0x3e34874a	0.17629734
75	0x3df33359	0.11875028
76	0x3e87e366	0.2654068
77	0x3d4e77ee	0.050407343
78	0xbd61e894	-0.055153444
79	0xbd1550c2	-0.03645397
80	0x3dddf34c	0.10837421
81	0x3d5078dd	0.050896514
82	0x3e05b9fa	0.13059226
83	0xbd4b8113	-0.04968364
84	0x3e1152c8	0.14191735
85	0x3c92bedb	0.017913273
86	0x3d9547ca	0.07289083
87	0xbd357833	-0.044304084
88	0xbd69eeb3	-0.057112407
89	0xbd4f5ca2	-0.05062545
90	0x3d37f1e5	0.044908423
91	0xbdf926fa	-0.12165637
92	0xbc675476	-0.014119258
93	0xbd253172	-0.040330358
94	0xbdb2b22f	-0.08725392
95	0xbda01776	-0.07816975
96	0x3cddddf7	0.02708338
97	0x3e36e5e1	0.1786113
98	0xbd26e0af	-0.04074162
99	0x3d8716e2	0.065961614

sequential_12/conv2d_38/BiasAdd/ReadVariableOp f4 [64]
0	0x3e90ad6f	0.2825732
1	0xbd429e9e	-0.04751455
2	0x3c6975ea	0.014249304
3	0xbe064c38	-0.13115013
4	0x3e824259	0.25441244
5	0x3d753088	0.059860736
6	0x3c872dd4	0.016501345
7	0xbddb3692	-0.10703768
8	0x3c5e02b7	0.013550452
9	0xbcc83748	-0.024440423
10	0xbd469f2a	-0.048491634
11	0xbe4895d4	-0.19588405
12	0xbcc82c81	-0.024435284
13	0x3e1a111a	0.15045586
14	0x3ebb2e39	0.36558703
15	0xbe139007	-0.14410411
16	0x3e1e8e48	0.15483963
17	0x3dc69bdb	0.09697696
18	0x3cc772a0	0.02434665
19	0xbe55761e	-0.2084584
20	0x3df77e0d	0.12084589
21	0x3bac08b0	0.005250059
22	0xbdb152ee	-0.08658396
23	0xbe11c0db	-0.14233725
24	0x3d2afc5d	0.04174458
25	0x3ef97495	0.48721758
26	0xbd928009	-0.07153327
27	0xbd2fb358	-0.042895645
28	0xbd6ccf21	-0.05781472
29	0xbdcd97ed	-0.10038743
30	0x3cd90893	0.026493346
31	0xbdf6c591	-0.120494016
32	0xbe88282b	-0.26593146
33	0x3ad4a8f6	0.0016224671
34	0x3d83c7ee	0.06434618
35	0x3e1744f7	0.14772402
36	0xbc120874	-0.008913148
37	0x3e46a2f2	0.19398096
38	0xbe13df71	-0.14440705
39	0x3e32f8dd	0.17477746
40	0xbde64d09	-0.11245162
41	0xbdf9b2ee	-0.12192331
42	0xbe2917f5	-0.16513045
43	0xbdabdde2	-0.0839193
44	0xbdc4df05	-0.0961285
45	0xbc6aa408	-0.014321335
46	0xbd6f2ce1	-0.05839241
47	0x3d61edd6	0.05515846
48	0x3e1d12d0	0.15339208
49	0xbd1afc08	-0.037838012
50	0x3e43e8fa	0.19131842
51	0xbdbd695d	-0.09248612
52	0x3bfa19d6	0.0076324744
53	0xbc394e79	-0.011310213
54	0xbdd54850	-0.10414183
55	0x3df4aa02	0.11946489
56	0x3c3f2d94	0.0116685815
57	0x3d576d1b	0.052594285
58	0x3e8c80d2	0.27442032
59	0x3d813f44	0.06310895
60	0xbe13d25f	-0.14435719
61	0xbd320cd3	-0.04346926
62	0xbe0ce7aa	-0.13760248
63	0xbd6a431c	-0.057192907

sequential_12/conv2d_37/BiasAdd/ReadVariableOp f4 [64]
0	0xbccd2b60	-0.025045097
1	0xbbb132c4	-0.005407663
2	0x3e6b2c53	0.22966127
3	0x3dfd1cc4	0.12359002
4	0x3cd2e339	0.025743114
5	0xbe85634f	-0.2605233
6	0x3d5a2f0b	0.05326752
7	0x3da621af	0.081118934
8	0xbeb5e47d	-0.35525885
9	0x3dabc4c4	0.083871394
10	0xbc93e723	-0.01805455
11	0xbcb24a6f	-0.021764008
12	0xbc9d040d	-0.01916697
13	0x3e896b3f	0.26839635
14	0x3e395b71	0.18101288
15	0xbdf3cab2	-0.119038954
16	0x3d85f518	0.065408885
17	0xbefd2612	-0.49443108
18	0xbde36aad	-0.11104331
19	0xbc21ab99	-0.009867572
20	0xbcc7db48	-0.024396554
21	0xbd4a4256	-0.04937967
22	0xbd39a614	-0.0453244
23	0xbd79f6e1	-0.061026458
24	0xbd2939de	-0.041314952
25	0x3e320abf	0.17386912
26	0xbe185562	-0.14876321
27	0x3e2b602b	0.16735904
28	0x3c842eee	0.01613566
29	0xbcf94f01	-0.03043318
30	0x3e0d6098	0.13806379
31	0xbd3e0196	-0.04638823
32	0xbbb4878b	-0.005509322
33	0xbdc0f6c2	-0.09422065
34	0xbd84f5be	-0.06492184
35	0xbc4a8da1	-0.0123628685
36	0x3db27a50	0.087147355
37	0xbe0f04a8	-0.1396662
38	0xbb54117f	-0.0032359061
39	0xbdd58f84	-0.10427764
40	0xbf522df3	-0.8210136
41	0x3e48aae0	0.19596434
42	0x3c9a6455	0.01884667
43	0x3e07da18	0.1326679
44	0xbe5386ae	-0.20656845
45	0xbdd12995	-0.10213009
46	0x3dd71b3a	0.1050324
47	0xbe8454e4	-0.25846016
48	0xbe03f5db	-0.12886755
49	0xbe1fd1c8	-0.15607369
50	0xbdce8838	-0.100845754
51	0x3d90e581	0.070750244
52	0xbc297bfe	-0.010344503
53	0xbd951868	-0.07280046
54	0xbd411f17	-0.04714879
55	0x3d7b1d03	0.061306965
56	0xbce8b589	-0.028406875
57	0xbee71abf	-0.45137593
58	0xbb9487ce	-0.0045327907
59	0xbddec5fa	-0.10877605
60	0xbd911d9b	-0.07085725
61	0xbeb66414	-0.3562323
62	0xbc0b4a2a	-0.008501569
63	0xbc47adf8	-0.0121874735

sequential_12/conv2d_36/BiasAdd/ReadVariableOp f4 [32]
0	0xbd431a68	-0.047632605
1	0xbf8be30e	-1.0928667
2	0xbe4d404a	-0.20044056
3	0xbcd9afe1	-0.026573123
4	0xbd8deb31	-0.06929625
5	0xbf11e623	-0.56991786
6	0xbc92c802	-0.017917637
7	0xbcfae5ef	-0.030627219
8	0xbd9e6537	-0.07734149
9	0xbbcb5bdd	-0.0062060193
10	0xba7435ac	-0.0009315859
11	0xbd261146	-0.040543817
12	0xbe32e4b7	-0.1747006
13	0x3b3968fa	0.002829133
14	0xbe927a9c	-0.2860917
15	0xbd84dbdf	-0.064872496
16	0xbd90d8e2	-0.07072617
17	0x3d000a5e	0.031259887
18	0x3d392535	0.0452015
19	0xbd8228cb	-0.06355437
20	0xbd5722bc	-0.05252336
21	0xbe00bce9	-0.12572064
22	0xbd3f6565	-0.046727557
23	0xbd5e7cf8	-0.0543184
24	0xbc628465	-0.013825511
25	0xbda61fb0	-0.08111513
26	0xbc57a6b6	-0.013162306
27	0xbe434006	-0.19067392
28	0xbc7017c6	-0.0146541055
29	0xbe10fa75	-0.14158042
30	0xbcbd1590	-0.02308157
31	0x3c710016	0.014709493

sequential_12/dense_24/MatMul f4 [100, 64]
0	0xbe98434b	-0.2973884
1	0xbd2a5aa5	-0.04159035
2	0x3ed5560f	0.4166722
3	0xbd8fb888	-0.070176184
4	0xbe9c8471	-0.30569795
5	0x3de35450	0.11100066
6	0x3ea00926	0.3125698
7	0x3e30a1ed	0.1724927
8	0xbee822bf	-0.4533901
9	0x3e6f4f68	0.23370135
10	0xbe2bcee5	-0.16778143
11	0xbea5c057	-0.32373306
12	0x3e8f3703	0.27971658
13	0x3e09bc26	0.13450679
14	0xbcf7ca7e	-0.030247923
15	0xbe117ec0	-0.14208508
16	0xbe082321	-0.1329465
17	0xbeb04375	-0.34426466
18	0xbe091fad	-0.1339099
19	0x3e63f1f4	0.22260267
20	0x3d9c9b19	0.0764677
21	0xbbae9707	-0.0053280625
22	0xbe54068b	-0.20705621
23	0xbe7b820d	-0.24561329
24	0xbd8d1486	-0.0688868
25	0xbb13a56e	-0.0022529024
26	0x3eba6275	0.36403242
27	0xbc95627d	-0.01823544
28	0xbe8fc068	-0.28076482
29	0xbe28da98	-0.16489637
30	0xbd15403b	-0.036438208
31	0xbe05f560	-0.13081884
32	0x3e83c9a6	0.25739783
33	0xbd58b7b7	-0.05290958
34	0xbe0fa469	-0.14027561
35	0xbe828639	-0.2549303
36	0x3ba9e993	0.005185315
37	0xbd619f4a	-0.05508355
38	0xbd81334e	-0.06308614
39	0x3e3b6aba	0.18302432
40	0xbe140374	-0.14454442
41	0x3e8376b5	0.25676504
42	0xbef590f3	-0.4796215
43	0xbe401709	-0.18758787
44	0xbed5383c	-0.41644466
45	0x3d3f5159	0.04670844
46	0x3d61e97e	0.055154316
47	0x3e523c7e	0.20530888
48	0x3ec14ea3	0.37755308
49	0x3bf54469	0.0074849618
50	0xbd81de6e	-0.06341253
51	0xbe040ecf	-0.12896274
52	0x3e2a0aa8	0.16605628
53	0x3efadf6b	0.4899858
54	0xbd42a252	-0.047518082
55	0x3de7cb44	0.11318067
56	0x3e055f83	0.13024716
57	0x3ce962ea	0.028489549
58	0x3c553f2a	0.013015548
59	0x3e629039	0.22125329
60	0xbd9b044a	-0.075691774
61	0xbc125af4	-0.008932818
62	0x3e06b9cb	0.13156812
63	0x3dff07b8	0.12452644
64	0xbd1880c8	-0.03723219
65	0xbdbd90c2	-0.09256126
66	0x3e91a1d0	0.28443766
67	0xbe01b275	-0.12665732
68	0xbe533df0	-0.20629096
69	0xbe6c0e0e	-0.23052236
70	0xbd6e1c7a	-0.058132626
71	0xbedce71b	-0.4314507
72	0xbe3415fb	-0.1758651
73	0x3daa30b7	0.08310073
74	0xbd44e055	-0.048065502
75	0xbe515ef1	-0.20446374
76	0x3e0263d2	0.12733391
77	0xbeaced86	-0.33774966
78	0x3d927491	0.071511395
79	0xbdcd2e55	-0.10018603
80	0xbd125091	-0.035721365
81	0x3d89000a	0.066894606
82	0x3eba4100	0.36377716
83	0xbe446e19	-0.19182624
84	0x3e863096	0.26208943
85	0xbe3b1ce2	-0.18272737
86	0x3e8d9171	0.27650025
87	0xbe02d568	-0.1277672
88	0x3d0a8120	0.03381455
89	0xbe9d4969	-0.3072007
90	0x3d853252	0.065037385
91	0x3db9e178	0.09076208
92	0xbddb0ff0	-0.10696399
93	0xbea39d2b	-0.31955847
94	0x3dec24d6	0.115304634
95	0xbe17398b	-0.14768045
96	0xbe06baf0	-0.13157248
97	0xbe6d0756	-0.2314733
98	0xbe9d28ac	-0.30695093
99	0xbdd202e3	-0.10254457
100	0x3e3f4a91	0.18680789
101	0xbe740018	-0.23828161
102	0x3c95adc7	0.01827134
103	0x3e3a1a9b	0.18174212
104	0xbd5b9597	-0.053609457
105	0xbea8f2c0	-0.32997704
106	0xbc53b66c	-0.012921911
107	0x3e7c1faf	0.24621461
108	0x3e45a596	0.19301447
109	0x3e052935	0.13004
110	0x3d70c4e2	0.058781512
111	0xbd5c6928	-0.053811222
112	0xbe1b0a22	-0.15140584
113	0x3b462311	0.0030233304
114	0xbea3452a	-0.31888705
115	0x3d2e61a2	0.04257358
116	0xbe9c46b7	-0.305227
117	0x3e0d7bad	0.1381671
118	0xbe9de8fd	-0.30841818
119	0xbeb0f75b	-0.34563717
120	0x3d073fa3	0.033019673
121	0x3e432873	0.19058399
122	0x3d5370ac	0.051621124
123	0x3dcc8e8a	0.09988125
124	0x3e25db68	0.16196978
125	0x3e0dc366	0.1384407
126	0xbd2635f7	-0.04057881
127	0xbe7ac770	-0.24490142
128	0x3ed659b1	0.41865304
129	0x3e8cb672	0.27482945
130	0xbdacbccc	-0.08434448
131	0xbe3e11cd	-0.18561478
132	0xbe870b45	-0.26375785
133	0xbee377b1	-0.44427255
134	0xbe85d209	-0.26136807
135	0xbec454c9	-0.38345936
136	0xbd1faa1e	-0.038980596
137	0xbc8243c5	-0.015901456
138	0x3d496b66	0.04917469
139	0x3eb245ce	0.34818882
140	0xbeadca33	-0.33943328
141	0x3e8674d3	0.26261005
142	0x3e71df78	0.23620403
143	0xbe34c8b7	-0.17654692
144	0xbeaacfbc	-0.33361614
145	0x3e614d4f	0.22002147
146	0xbd7468c9	-0.059670243
147	0x3dcbff67	0.099608235
148	0xbe39dd57	-0.1815084
149	0x3e6a0fab	0.2285754
150	0xbd5ca298	-0.053866
151	0x3e466a02	0.19376376
152	0xbd322059	-0.04348788
153	0x3eb508cd	0.35358277
154	0xbdeaea51	-0.114704736
155	0xbe2d0ffc	-0.16900629
156	0x3ee977cd	0.45599213
157	0x3de2b3b9	0.110694356
158	0xbd4ec425	-0.050480027
159	0xbd4afd3d	-0.049557913
160	0xbcaf19b2	-0.021374557
161	0x3cb6acc3	0.022299176
162	0x3d278935	0.040902335
163	0x3ebf2aba	0.37337285
164	0x3db53374	0.088477045
165	0x3df2c380	0.11853695
166	0x3e841d48	0.2580359
167	0xbe487bd8	-0.19578493
168	0xbc9749b4	-0.018467762
169	0xbc4915c4	-0.012273256
170	0x3e5d764f	0.21627162
171	0x3ea5bdf6	0.3237149
172	0x3ece0c91	0.40243962
173	0xbe962f49	-0.2933295
174	0x3db33fea	0.08752425
175	0xbe9ee737	-0.31035778
176	0x3be783f0	0.0070652887
177	0xbeaae6a8	-0.33379102
178	0x3c9fe05b	0.01951616
179	0xbe041acc	-0.12900847
180	0xbe26800e	-0.16259786
181	0x3e83ed51	0.25766996
182	0x3e34918b	0.17633645
183	0xbe30b7a3	-0.17257552
184	0xbe45ff41	-0.19335653
185	0x3e74a0bf	0.23889445
186	0x3e35b8b3	0.17746238
187	0x3dfec475	0.12439815
188	0xbe4bfefc	-0.19921488
189	0xbe101d50	-0.14073682
190	0x3c3628a9	0.011118093
191	0xbe787711	-0.2426417
192	0x3c486210	0.012230411
193	0x3e792acf	0.24332736
194	0x3e8a1de3	0.26975927
195	0xbdb8ed5b	-0.09029647
196	0x3da1a476	0.078926966
197	0xbdf8da7f	-0.1215105
198	0x3d89cc4b	0.06728419
199	0xbed1f654	-0.41008246
200	0x3d82b292	0.06381716
201	0x3ea9339d	0.3304719
202	0xbd6a3a44	-0.057184473
203	0xbe04991c	-0.12949032
204	0x3d5fc9b5	0.054635722
205	0x3eddb85b	0.43304715
206	0xbc5521d1	-0.013008551
207	0x3ea50bd7	0.32235596
208	0x3e7fcee5	0.24981268
209	0x3e193c2a	0.14964357
210	0x3f071a88	0.5277486
211	0xbd548a50	-0.051889718
212	0xbbedb954	-0.007254759
213	0x3ec8dd8f	0.39231536
214	0x3e111f4a	0.14172092
215	0xbed9de2a	-0.4255231
216	0x3ec4a39f	0.38406083
217	0x3dc6e485	0.097115554
218	0xbe586cf2	-0.2113531
219	0xbdd9f5bd	-0.10642574
220	0xbd719af0	-0.05898565
221	0x3e0dd938	0.13852394
222	0x3e26304e	0.16229364
223	0xbea26156	-0.31714886
224	0xbe8a26c1	-0.26982692
225	0xbe88c28d	-0.2671093
226	0xbe25bb03	-0.1618462
227	0x3e906984	0.28205502
228	0xbe7c59b8	-0.246436
229	0x3e48283a	0.19546595
230	0x3ea5984d	0.3234276
231	0xbddb8107	-0.107179694
232	0xbe94d568	-0.29069066
233	0xbe024d0d	-0.12724705
234	0x3ccd469a	0.02505808
235	0xbe8374cf	-0.25675055
236	0xbd6fbe06	-0.05853083
237	0xbed98eeb	-0.4249185
238	0x3d790f5e	0.06080567
239	0x3ef3be1e	0.47605985
240	0xbe7fd4a4	-0.2498346
241	0xbda59c7e	-0.08086489
242	0xbd3f5419	-0.04671106
243	0xbdf3a0fe	-0.11895941
244	0xbd6552b3	-0.05598707
245	0xbd986cae	-0.07442604
246	0x3e19e205	0.15027626
247	0x3db7af10	0.089689374
248	0xbd87b311	-0.06625951
249	0x3c821be7	0.015882445
250	0xbe95b724	-0.29241288
251	0xbe1272e0	-0.14301634
252	0x3de09c61	0.10967327
253	0x3e5ed0b4	0.21759301
254	0xbdcf7cf6	-0.10131256
255	0x3c83abb6	0.01607309

sequential_12/dense_25/MatMul f4 [10, 100]
0	0x3eed50e9	0.46350792
1	0x3de433d0	0.11142695
2	0xbf0cf410	-0.5505991
3	0x3e8dcb5f	0.27694222
4	0xbdcc7bca	-0.099845484
5	0xbd5fccda	-0.05463872
6	0xbeb07617	-0.34465095
7	0x3dd93d57	0.10607403
8	0xbe559e1b	-0.20861094
9	0xbe3a8313	-0.18214063
10	0x3d792c3f	0.060833212
11	0xbdccc8e8	-0.09999257
12	0x3d5469f2	0.05185885
13	0xbe5b06fa	-0.2138938
14	0x3c48cd31	0.012255953
15	0x3ef02e00	0.46910095
16	0x3c504b22	0.012713226
17	0x3e4d5ee9	0.20055737
18	0xbed0dec3	-0.40794954
19	0xbe478371	-0.19483735
20	0xbe2c4971	-0.1682489
21	0x3e00df9c	0.125853
22	0x3d7f4a90	0.062326968
23	0xbe3a8500	-0.18214798
24	0x3e74d5c5	0.23909672
25	0xbdae82c2	-0.08521034
26	0x3be1b049	0.00688747
27	0xbd1197d2	-0.035545178
28	0x3eb9a255	0.36256662
29	0xbec39153	-0.3819681
30	0xbeaeddaf	-0.34153506
31	0xbc532b92	-0.012888806
32	0xbe0c3c9c	-0.13694996
33	0x3e236eb8	0.15960205
34	0xbe53611b	-0.20642512
35	0x3cedb45b	0.029016664
36	0x3dd653bd	0.104651906
37	0xbea24c66	-0.31698912
38	0xbe042707	-0.12905513
39	0x3e33c0f3	0.17554073
40	0xbe40acb7	-0.18815885
41	0xbe43281f	-0.19058274
42	0x3e98d037	0.29846355
43	0xbee64f30	-0.4498229
44	0x3d28c730	0.041205585
45	0xbcd0446c	-0.025423251
46	0x3e876afa	0.26448804
47	0xbd6d9558	-0.058003753
48	0xbe4e483a	-0.2014474
49	0x3d90da27	0.07072859
50	0xbe71e395	-0.23621972
51	0xbe8da83f	-0.27667424
52	0x3df55a5b	0.119801246
53	0xbd30c6f8	-0.0431585
54	0x3e4fdc4d	0.20298882
55	0x3ee64c63	0.44980153
56	0xbe3dd235	-0.18537219
57	0x3e875fcc	0.26440275
58	0xbd297f0f	-0.04138094
59	0xbe905831	-0.28192285
60	0xbe673cc6	-0.22581777
61	0x3e06801e	0.1313481
62	0x3e982958	0.29719043
63	0xbea8ce1e	-0.32969755
64	0xbdbe7fac	-0.09301695
65	0x3ebe8c1b	0.37216267
66	0xbdcf230a	-0.10114105
67	0x3e2f2ad0	0.17106175
68	0xbe094cc2	-0.13408187
69	0xbecb8f0f	-0.39757583
70	0x3e4c352d	0.1994216
71	0x3e2e5d17	0.17027698
72	0xbe438c96	-0.19096598
73	0x3e42280d	0.1896059
74	0xbe30ed9e	-0.17278144
75	0xbe0cbe1f	-0.137444
76	0x3c3a4e75	0.011371245
77	0xbcf76e59	-0.030203985
78	0xbe5689a9	-0.2095095
79	0xbeb1f0bc	-0.34753978
80	0xbea49d26	-0.32151145
81	0xbdc39a32	-0.09550895
82	0xbe13bc05	-0.14427193
83	0x3d989ae8	0.07451421
84	0xbea41c75	-0.3205296
85	0x3ee8d17c	0.45472324
86	0xbea753d5	-0.32681146
87	0xbda4d79b	-0.08048936
88	0x3ddd7642	0.108135715
89	0xbca3c058	-0.019989178
90	0x3e1e0808	0.15432751
91	0xbf0531fa	-0.52029383
92	0x3e2eca02	0.17069247
93	0x3d96fc1d	0.073723055
94	0x3deac4ee	0.114633426
95	0x3e4e5edf	0.20153378
96	0x3e94f1f7	0.29090855
97	0xbdafa03d	-0.08575485
98	0xbe814446	-0.252474
99	0xbdaafd02	-0.08349039
100	0xbf0e1691	-0.55503184
101	0x3d181a15	0.03713425
102	0x3e5fbbd6	0.21848997
103	0xbf1afe20	-0.60544014
104	0xbf2215d1	-0.6331454
105	0xbe86929c	-0.2628373
106	0xbead930d	-0.33901253
107	0x3db58bf6	0.08864586
108	0x3ec0d050	0.3765893
109	0xbe45d053	-0.1931775
110	0xbdddc53f	-0.10828637
111	0x3dab7563	0.08371999
112	0x3e31c818	0.17361486
113	0xbd13acd5	-0.036053497
114	0xbedd2cb1	-0.4319816
115	0x3efeaa8b	0.4973949
116	0xbe35208d	-0.17688198
117	0x3e9b5ed1	0.30345777
118	0x3d621342	0.055194147
119	0x3d854261	0.065068014
120	0xbebeb88b	-0.3725017
121	0xbdb24639	-0.087048
122	0x3d89488a	0.06703289
123	0x3f1d2ce5	0.6139663
124	0xbd8ace7d	-0.06777666
125	0x3d4bb9d4	0.049737766
126	0xbe2f0000	-0.17089844
127	0xbe70ab0a	-0.23502746
128	0x3e6ba591	0.23012377
129	0x3f04fded	0.5194996
130	0x3dce4e92	0.1007358
131	0xbdb9db0b	-0.09074982
132	0xbd2855a7	-0.04109731
133	0xbe352c9f	-0.17692803
134	0x3efbf3a0	0.4920931
135	0x3e91ab37	0.2845094
136	0x3f00526e	0.5012578
137	0x3e2ab540	0.16670704
138	0xbdc4da6d	-0.09611974
139	0xbe611a58	-0.21982706
140	0xbb69afa3	-0.0035657666
141	0xbf0d14b9	-0.55109745
142	0xbdec7f33	-0.11547699
143	0xbd919955	-0.07109324
144	0xbe91501a	-0.28381425
145	0x3f2371b8	0.63845396
146	0xbe8fba09	-0.2807162
147	0x3e6955ac	0.22786587
148	0xbd4197bf	-0.047263857
149	0xbe5d89f9	-0.21634664
150	0xbbcb92c4	-0.006212564
151	0x3e08fc74	0.13377553
152	0x3d778b8f	0.060435828
153	0x3ced0842	0.028934602
154	0x3c2d9278	0.010594003
155	0x3cd501a1	0.026001753
156	0x3d3ed6a4	0.046591416
157	0xbe904fee	-0.28185982
158	0x3e470a80	0.19437599
159	0x3d84504c	0.06460628
160	0xbe55a7e3	-0.20864825
161	0x3d5d650d	0.054051448
162	0xbd331085	-0.043716926
163	0xbd861b67	-0.06548195
164	0xbe83faec	-0.25777376
165	0xbe1b6baa	-0.1517779
166	0xbe9b0923	-0.30280408
167	0xbece30a0	-0.40271473
168	0xbe1da116	-0.1539348
169	0x3e428f18	0.18999898
170	0xbea13104	-0.31482708
171	0xbf06ab86	-0.52605474
172	0x3c9827b8	0.018573627
173	0x3eac72d5	0.3368136
174	0xbdd50296	-0.10400884
175	0x3ebb73be	0.36611742
176	0x3e527b0d	0.20554753
177	0xbe61c83a	-0.22049037
178	0x3ddbd546	0.10734038
179	0xbd292394	-0.041293696
180	0xbe3e80c5	-0.18603809
181	0xbe5ab371	-0.21357514
182	0x3e9af424	0.3026439
183	0x3c7e09ba	0.015505249
184	0x3ed2ade3	0.4114829
185	0x3b5c6a47	0.0033632682
186	0xbe2befc3	-0.1679068
187	0x3d19d821	0.037559632
188	0x3e2e89a4	0.17044693
189	0xbdc2c555	-0.09510294
190	0x3e08ee1f	0.13372086
191	0xbde66d7b	-0.112513505
192	0xbf0a9d35	-0.5414613
193	0x3e629174	0.22125798
194	0x3dcd1a32	0.10014762
195	0xbe2cf794	-0.16891319
196	0x3e05bf11	0.13061167
197	0x3f13807a	0.57617915
198	0xbd9f7a00	-0.077869415
199	0xbdea60be	-0.11444233
200	0x3ed84f92	0.42248207
201	0x3e08269f	0.13295983
202	0xbf19fe6c	-0.6015384
203	0xbc5ff92c	-0.013670247
204	0xbdfc5323	-0.123205446
205	0x3f1aea18	0.6051345
206	0xbe98c3c7	-0.29836866
207	0xbdb26ab4	-0.08711758
208	0x3eaf8013	0.342774
209	0x3e811591	0.25211766
210	0x3ddf3be7	0.10900097
211	0x3e46ba72	0.1940706
212	0x3cc67cd4	0.024229445
213	0x3c299b14	0.010351915
214	0xbed39e96	-0.4133193
215	0xbe2b27c2	-0.16714385
216	0xbdef0bda	-0.116721824
217	0xbec90927	-0.39264795
218	0x3ec6add2	0.3880449
219	0xbda86857	-0.08223026
220	0x3e471abb	0.1944379
221	0x3ded591b	0.11589261
222	0x3ea9953a	0.33121663
223	0xbe568c59	-0.20951976
224	0xbdf80349	-0.121100016
225	0x3d1df691	0.038565222
226	0xbe51db07	-0.20493709
227	0x3d9edfdb	0.07757541
228	0xbec2a005	-0.3801271
229	0x3e6d38ba	0.2316617
230	0xbdfff4ad	-0.1249784
231	0xbd3e3d0a	-0.04644493
232	0x3ec4efdc	0.38464248
233	0xbdb42f20	-0.08798051
234	0x3edfc6ec	0.43706453
235	0x3ddb8cde	0.10720228
236	0x3ca2116c	0.019783698
237	0x3c1519da	0.009100402
238	0xbdf743c7	-0.120734744
239	0xbdf0136e	-0.11722456
240	0x3e82b97b	0.25532135
241	0xbed21ca4	-0.41037476
242	0x3eb8de0f	0.36106917
243	0xbe803b26	-0.25045127
244	0xbd267bfa	-0.040645577
245	0xbe6f7961	-0.23386146
246	0xbe9db03a	-0.30798513
247	0x3ce79cf9	0.028273093
248	0x3d8eb7f4	0.0696868
249	0x3d720c26	0.059093617
250	0xbdbf6cae	-0.09346901
251	0xbe7e5cd9	-0.24840106
252	0xbe5dc6ab	-0.21657817
253	0xbef4e93d	-0.47834197
254	0xbe5797c2	-0.21053985
255	0x3eb3ed27	0.3514187

sequential_12/conv2d_36/Conv2D f4 [32, 3, 3, 1]
0	0x3f1aaa05	0.6041568
1	0xbf994203	-1.197327
2	0xbe94f74a	-0.29094917
3	0xbf2c3bec	-0.67278934
4	0xbee37dd2	-0.4443193
5	0x3f88913a	1.066932
6	0xbf4f8414	-0.8106091
7	0xbcaaa6d4	-0.020831503
8	0x3ea0e07b	0.31421265
9	0x3e033ccd	0.12816162
10	0xbe54cf59	-0.20782222
11	0x3f393f8f	0.7236261
12	0x3e21711a	0.15765801
13	0x3ec90cfa	0.39267713
14	0x3f02faf6	0.51164186
15	0xbd9ab4e0	-0.075540304
16	0x3ef6561f	0.4811258
17	0xbeedc7e5	-0.4644157
18	0x3ec6aca0	0.38803577
19	0x3d9dc937	0.07704394
20	0xbfdb0cbd	-1.7113262
21	0x3ec4581a	0.38348466
22	0x3f5b12c5	0.85575515
23	0x3f1e3e26	0.6181358
24	0x3c596f81	0.0132712135
25	0xbeff660b	-0.4988254
26	0x3d81e419	0.06342334
27	0xbeb482cc	-0.3525604
28	0xbe7702e7	-0.24122201
29	0xbefa54d2	-0.48892838
30	0x3e4af9e6	0.19821891
31	0x3d56c6f1	0.05243582
32	0xbf00599f	-0.5013675
33	0x3f6d9869	0.92810684
34	0xbf2d1d28	-0.67622614
35	0xbe9f8466	-0.311557
36	0x3e28f3ac	0.16499203
37	0x3e79dd41	0.24400808
38	0x3e211925	0.15732248
39	0xbeff0b46	-0.49813288
40	0xbdc0b26a	-0.0940903
41	0x3f252bc1	0.6451989
42	0x3eb1b11b	0.34705433
43	0xbf482540	-0.7818184
44	0xbed6082e	-0.41803116
45	0x3eb89a87	0.36055395
46	0x3ea85658	0.32878375
47	0x3f5d7953	0.8651325
48	0x3e0a6a6c	0.13517159
49	0x3ef625d0	0.48075724
50	0xbf794877	-0.973762
51	0xbc4f546c	-0.012654405
52	0x3d833b67	0.064078145
53	0xbf25d6cd	-0.64780885
54	0x3f06e496	0.52692544
55	0xbd8b00f0	-0.06787288
56	0xbe32281a	-0.1739811
57	0x3f0a62f3	0.54057235
58	0x3f0673e8	0.5252061
59	0xbf0d0288	-0.5508199
60	0xbf4a0cbb	-0.78925675
61	0x3ecfdaf9	0.4059675
62	0xbf9ba724	-1.2160382
63	0xbe10c819	-0.14138831
64	0x3edcd51d	0.43131343
65	0xbf55785a	-0.83386767
66	0xbcee0bd3	-0.029058373
67	0x3ec31b72	0.38106877
68	0xbf0ec2dd	-0.5576609
69	0xbf8974ca	-1.0738766
70	0x3f187f82	0.5956956
71	0x3ed90b1a	0.42391282
72	0xbf4387c5	-0.7637904
73	0x3ea3e28f	0.32008788
74	0xbf6379f2	-0.8885795
75	0xbf17d7a4	-0.59313416
76	0x3f2e9fcb	0.68212575
77	0xbe17d04d	-0.14825554
78	0xbe080dac	-0.13286465
79	0x3e62bc16	0.22142062
80	0x3ecc15f0	0.39860487
81	0x3ef529a1	0.47883323
82	0x3e0d4211	0.13794734
83	0xbf13babf	-0.57706827
84	0xbe91f4e8	-0.2850716
85	0xbf2722bb	-0.6528737
86	0xbf389e4b	-0.72116536
87	0x3eb31881	0.34979632
88	0xbeaccc31	-0.33749536
89	0xbf20767e	-0.62680805
90	0x3ee49158	0.44642138
91	0xbf49fae6	-0.78898466
92	0x3f82ced8	1.0219374
93	0xbe689b6a	-0.22715536
94	0xbebd54dc	-0.36978805
95	0xbee7002c	-0.4511732
96	0x3e4d79cb	0.20065992
97	0xbf287ddf	-0.65817064
98	0xbec31ece	-0.3810944
99	0x3e9589f2	0.29206806
100	0x3f30b860	0.69031334
101	0x3f8622c5	1.0479361
102	0xbf63459c	-0.8877809
103	0xbf7f65f8	-0.99764967
104	0xbf1150ea	-0.5676409
105	0xbddb47c7	-0.1070705
106	0x3e211ff5	0.15734847
107	0xbcd8b37c	-0.026452772
108	0xbdc4dd7a	-0.09612556
109	0xbf72010f	-0.94532865
110	0xbf982d0a	-1.1888745
111	0xbf66b185	-0.90114623
112	0x3ee9db6a	0.45675212
113	0x3f04893f	0.5177192
114	0x3f03bdc9	0.51461464
115	0x3f23114b	0.6369826
116	0xbcd272df	-0.02568954
117	0xbeccab12	-0.39974266
118	0xbf5a2f0b	-0.8522803
119	0x3e86762c	0.26262033
120	0xbefbcd7e	-0.49180216
121	0x3e93477a	0.2876547
122	0x3f9043ee	1.127073
123	0x3ec273f3	0.37979087
124	0xbe961bd9	-0.2931812
125	0xbea48849	-0.32135227
126	0xbe5c2f2c	-0.2150237
127	0x3ebae872	0.36505467
128	0x3effdf28	0.49974942
129	0xbe2defcd	-0.16986008
130	0xbf224576	-0.6338724
131	0xbf13b985	-0.57704955
132	0xbf031e2d	-0.5121792
133	0xbf29c2c8	-0.6631284
134	0x3f4c7cd3	0.79877967
135	0xbf517005	-0.81811553
136	0xbe9730ad	-0.29529324
137	0xbf5f69b7	-0.87270683
138	0x3c1cb47b	0.009564514
139	0x3f76ac53	0.96356696
140	0x3d106da4	0.03526081
141	0x3e88ec62	0.26742846
142	0xbf561370	-0.8362341
143	0x3f6009da	0.8751503
144	0xbec6e588	-0.38846993
145	0x3ee7a42d	0.45242444
146	0x3ec458ec	0.38349092
147	0x3e9ad2f1	0.3023906
148	0xbf2b3562	-0.6687833
149	0xbf5289b6	-0.8224138
150	0x3e37de0f	0.17955802
151	0xbf31c6f7	-0.6944422
152	0xbe5c022b	-0.21485202
153	0xbe1b132a	-0.1514403
154	0xbf5492ea	-0.83036673
155	0x3f284e2b	0.65744275
156	0x3f2e59a5	0.68105537
157	0xbf443062	-0.76636326
158	0x3e4ee63e	0.20205018
159	0xbc098494	-0.0083934255
160	0xbeaa3664	-0.33244622
161	0x3d65cfa3	0.05610622
162	0xbebbf7bc	-0.36712444
163	0xbc306b95	-0.010767837
164	0x3f817153	1.0112709
165	0x3e891cda	0.26779824
166	0xbefed4bf	-0.49771687
167	0xbf8acec2	-1.0844347
168	0x3e6832a6	0.22675571
169	0xbe87d62c	-0.26530588
170	0x3ea823a5	0.32839695
171	0x3f8ff3a4	1.1246228
172	0x3e8a569d	0.27019206
173	0xbfa460f0	-1.2842083
174	0x3f1913f5	0.59796077
175	0xbf6b5f87	-0.9194264
176	0xbdd5134d	-0.10404072
177	0x3e2f711d	0.17132993
178	0xbd445a28	-0.047937542
179	0xbef87877	-0.48529407
180	0xbf2987b2	-0.6622268
181	0x3ef96f2c	0.4871763
182	0x3f0f97f5	0.56091243
183	0x3e4081e7	0.18799554
184	0x3e493b4b	0.19651525
185	0xbf8ac9a1	-1.0842782
186	0xbf1f7028	-0.6228051
187	0x3f25f1c3	0.64822024
188	0x3d4db875	0.05022474
189	0xbf04a694	-0.5181668
190	0xbebcc865	-0.3687164
191	0x3f1433b8	0.57891417
192	0xbe6dc093	-0.23217992
193	0xbd81ea75	-0.06343547
194	0x3e69012a	0.2275435
195	0x3e66a149	0.22522463
196	0xbdad45d1	-0.08460582
197	0x3e926d49	0.28599003
198	0x3e4ad0c4	0.198062
199	0x3fb42791	1.4074575
200	0xbf359d1b	-0.7094285
201	0xbe36ebb0	-0.17863345
202	0x3f2f2fa7	0.68432087
203	0xbf84438b	-1.0333112
204	0xbf38d805	-0.7220462
205	0xbf3fdfb8	-0.7495074
206	0xbf8c02e3	-1.0938381
207	0xbf2db2ef	-0.67851156
208	0xbf7974ea	-0.9744402
209	0xbf801f87	-1.0009621
210	0x3f212704	0.6295016
211	0x3f96c81f	1.1779822
212	0x3f8a71ba	1.0815957
213	0xbdfb4b74	-0.12270251
214	0xbebcf2f9	-0.36904123
215	0xbe2c0efd	-0.16802593
216	0x3e58ff63	0.21191172
217	0x3e92be69	0.28660896
218	0x3a8605ef	0.0010225157
219	0xbeb28e47	-0.34874174
220	0xbed1ab97	-0.40951225
221	0x3f224d57	0.6339926
222	0x3e0f0d95	0.13970025
223	0x3ebe1d24	0.37131608
224	0xbf7651de	-0.9621867
225	0xbde4e55b	-0.111765586
226	0xbf301e50	-0.68796253
227	0xbf331b62	-0.6996366
228	0x3f5f7951	0.8729449
229	0x3d3d8235	0.046266753
230	0xbf185492	-0.59504044
231	0xbec817a7	-0.39080545
232	0x3f65d1d3	0.8977329
233	0x3eedf744	0.4647771
234	0x3f99ef29	1.2026111
235	0xbf3ef1a7	-0.7458748
236	0xbf8092e4	-1.0044827
237	0x3f24d432	0.64386284
238	0xbf4f5135	-0.8098329
239	0x3f753f3c	0.95799613
240	0xbf432ea4	-0.7624304
241	0xbf5fda97	-0.87442917
242	0x3efd7c50	0.49508905
243	0xbd60e5d9	-0.0549067
244	0x3fab767b	1.3395532
245	0xbfcd4cb0	-1.6039028
246	0xbecd2a7c	-0.40071476
247	0x3f80abad	1.0052391
248	0xbf6864ac	-0.90778613
249	0x3ea2c67b	0.31792054
250	0x3e464d6c	0.19365472
251	0xbd456120	-0.04818833
252	0xbebf3f79	-0.37353113
253	0xbeb26051	-0.3483911
254	0x3f64e39f	0.8940982
255	0x3e861c80	0.2619362

sequential_12/conv2d_37/Conv2D f4 [64, 3, 3, 32]
0	0xbdc7a45f	-0.09748148
1	0x3dafa382	0.085761085
2	0xbc4221c0	-0.011848867
3	0x3bd26a2b	0.0064213476
4	0xbe13e6d6	-0.14443526
5	0x3cbcb474	0.023035266
6	0x3da22e85	0.07919029
7	0xbe2224a0	-0.15834284
8	0x3bb2cae5	0.005456316
9	0xbd5c28d8	-0.05374989
10	0xbdccc3d2	-0.09998287
11	0xbe1bba2b	-0.15207736
12	0x3d6ef08e	0.05833488
13	0xbdbf0273	-0.09326639
14	0xbde2fcec	-0.11083397
15	0xbdf49b1e	-0.11943649
16	0xbd817b13	-0.06322303
17	0xbd59c917	-0.05317029
18	0xbd742600	-0.059606552
19	0xbe5bdc29	-0.21470703
20	0x3daa7c28	0.08324462
21	0x3d899667	0.0671814
22	0x3d22ea59	0.039774273
23	0x3caa83c2	0.02081478
24	0x3d8f30fa	0.069917634
25	0xbd077d2e	-0.033078365
26	0xbd18a454	-0.03726609
27	0xbd62fce3	-0.055416953
28	0xbde08e67	-0.10964661
29	0xbdb0ffc9	-0.08642537
30	0x3d260de7	0.040540602
31	0xbe4104de	-0.18849513
32	0xbd202ffd	-0.039108265
33	0xbe1fe713	-0.15615492
34	0x3d6daad8	0.058024257
35	0x3d0acea3	0.03388847
36	0xbe4a1392	-0.19734028
37	0xbe070ebc	-0.13189214
38	0xbde2c990	-0.11073601
39	0x3dce3f14	0.10070625
40	0x3ca2f93b	0.019894233
41	0x3cf1393f	0.029446242
42	0x3ca2d881	0.019878628
43	0x3d91876f	0.0710591
44	0xbda526f5	-0.08064071
45	0xba06bdf8	-0.0005140002
46	0xbe1baddf	-0.15203045
47	0xbe18306e	-0.14862224
48	0xbe354d33	-0.1770523
49	0x3de8bd0a	0.11364181
50	0x3df0b6e0	0.11753631
51	0x3d22482e	0.039619617
52	0xbdf68537	-0.120371275
53	0xbd5164be	-0.051121466
54	0xbc6ed99d	-0.01457825
55	0x3cc03900	0.02346468
56	0xbc96e126	-0.018417906
57	0xbd44e4b4	-0.04806967
58	0xbd96b448	-0.07358605
59	0xbdc235e8	-0.09482938
60	0xbcd68f1c	-0.026191287
61	0xbe025581	-0.1272793
62	0xbd358cdb	-0.044323783
63	0x3c282d13	0.010264653
64	0xbeafc004	-0.34326184
65	0xbbc8a2a9	-0.006122906
66	0xbe1d34d4	-0.15352184
67	0xbd8b2ecf	-0.067960374
68	0xbcf34657	-0.029696627
69	0xbdcc6842	-0.09980823
70	0xbd890660	-0.06690669
71	0x3de465cf	0.11152231
72	0xbd5dd136	-0.054154597
73	0xbe006498	-0.12538373
74	0xba11025d	-0.0005531663
75	0x3e190c26	0.1494604
76	0xbdecfd55	-0.11571757
77	0xbe92ce49	-0.28673008
78	0x3d4bac76	0.04972502
79	0x3d482ddb	0.048871856
80	0x3e4172fb	0.18891518
81	0x3d808485	0.06275276
82	0x3e40e244	0.18836313
83	0xbdc474d5	-0.095925964
84	0x3e53d4e5	0.20686682
85	0xbe544759	-0.20730342
86	0xbd2aec66	-0.041729353
87	0xbddc9ee3	-0.10772493
88	0xbe0220fe	-0.12707898
89	0xbe017839	-0.12643518
90	0xbe670373	-0.2255991
91	0xbe04dde5	-0.12975271
92	0xbd47b29c	-0.04875432
93	0x3d24d3f2	0.04024119
94	0xbe1f6be6	-0.15568504
95	0x3e04505b	0.12921278
96	0x3df1d392	0.11807932
97	0xbe370a30	-0.1787498
98	0xbd9e4ba9	-0.07729275
99	0xbddd9478	-0.10819334
100	0x3d8c45f1	0.06849278
101	0xbd4e5734	-0.050376132
102	0xbcd091f7	-0.025460226
103	0xbdc7fdfa	-0.09765239
104	0xbdfc1520	-0.12308717
105	0x3c9c1e62	0.019057456
106	0xbbfd3db0	-0.007728301
107	0xbe3ce6ad	-0.18447371
108	0xbdbc7182	-0.092013374
109	0xbdf7c16e	-0.12097441
110	0xbd915e4a	-0.07098062
111	0x3d4e6abe	0.050394766
112	0x3d6e2d5e	0.058148734
113	0x3d77336f	0.060351785
114	0xbe192243	-0.14954476
115	0x3da24777	0.07923787
116	0xbe3422e0	-0.17591429
117	0xbe42e19d	-0.19031377
118	0xbdeb7250	-0.11496413
119	0x3d39eff3	0.04539485
120	0xbdc8e708	-0.09809691
121	0xbc1d5931	-0.009603784
122	0x3d72c82e	0.059272937
123	0xbde235cc	-0.11045417
124	0x3d8cc6ec	0.06873879
125	0x3d912e8b	0.070889555
126	0x3e0028de	0.1251559
127	0x3c79b0cb	0.015239905
128	0x3e5d2a4b	0.21598165
129	0x3db7417d	0.08948038
130	0xbcf1cef4	-0.029517628
131	0xbdc8118b	-0.09768971
132	0x3dfbea82	0.12300588
133	0x3d2474ac	0.04015033
134	0xbda349a6	-0.07973032
135	0xbc8cb1f5	-0.0171747
136	0x3e63d636	0.22249684
137	0xbd860c2b	-0.065452896
138	0xbdb71b0b	-0.08940705
139	0xbbf861e1	-0.0075800274
140	0xbd9d0ced	-0.07668481
141	0x3e0d2c1f	0.13786362
142	0xbba349e1	-0.0049831723
143	0x3e525ae8	0.2054249
144	0x3de0b207	0.10971456
145	0x3e1ec884	0.15506178
146	0x3ccd44a6	0.025057148
147	0xbd85a299	-0.06525154
148	0xbd0dd42b	-0.034626167
149	0x3da364c0	0.07978201
150	0x3db16275	0.08661357
151	0xbdca7758	-0.09886044
152	0xbdc788c9	-0.097428866
153	0x3d9a2fc5	0.075286426
154	0x3e02a885	0.12759598
155	0x3dc1469e	0.09437297
156	0x3c33054b	0.010926555
157	0xbe1630b9	-0.14667024
158	0xbd6b59ef	-0.057458814
159	0xbdee9171	-0.116488345
160	0xbe758d33	-0.23979644
161	0x3cd559d6	0.026043814
162	0xbe2491e9	-0.16071285
163	0xbd339f22	-0.043852933
164	0x3cd8f6db	0.026484897
165	0xbde5afad	-0.11215148
166	0xbd00f84d	-0.031486798
167	0x3ddeda5b	0.10881492
168	0x3e2cdb31	0.1688049
169	0x3e1f840e	0.15577719
170	0x3be2b308	0.006918315
171	0xbdf3720d	-0.11886988
172	0xbda0d98d	-0.078539945
173	0x3bcb4771	0.006203585
174	0xbd913bc9	-0.07091481
175	0x3d57fc7d	0.052731026
176	0xbd82dc23	-0.06389644
177	0x3da2d9e6	0.07951717
178	0xbdf46d36	-0.11934893
179	0xbdaed6de	-0.085370764
180	0xbd50a772	-0.05094094
181	0xbe029fc7	-0.12756263
182	0xbdac0a3d	-0.0840039
183	0x3d1ee0a7	0.038788464
184	0xbe02a044	-0.12756449
185	0x3e6f2c47	0.23356734
186	0xbe02879f	-0.12747048
187	0x3beeaade	0.0072835525
188	0x3cda4091	0.026642116
189	0x3e054f6e	0.13018581
190	0x3e1f98c9	0.15585627
191	0xbd8053b5	-0.06265966
192	0xbe1ae739	-0.15127267
193	0xbe062108	-0.13098538
194	0xbd8341c3	-0.064090274
195	0x3d9744a7	0.07386141
196	0xbd85c1ea	-0.06531127
197	0xbe17882d	-0.1479804
198	0xbded7f13	-0.11596503
199	0xbd955bea	-0.07292922
200	0x3dbfcbbc	0.09365031
201	0x3da7c6de	0.08192228
202	0xbdd91208	-0.10599142
203	0x3d52fa10	0.05150801
204	0xbdee19cd	-0.11626015
205	0xbd855ebd	-0.065122105
206	0xbddb4f57	-0.10708492
207	0xbca82bd6	-0.020528715
208	0xbd39fab2	-0.045405097
209	0xbdd5c036	-0.10437052
210	0x3d226351	0.039645497
211	0xbc7301f6	-0.0148320105
212	0xbdb2ad67	-0.0872448
213	0xbd12715c	-0.03575264
214	0xbdbda003	-0.092590354
215	0xbe34c03f	-0.17651461
216	0xbde63fb2	-0.11242618
217	0xbdd76256	-0.10516803
218	0x3d8b6c59	0.06807775
219	0xbbe63ead	-0.0070265145
220	0xbd7be035	-0.061493117
221	0x3d558953	0.052132916
222	0xbda150e1	-0.078767546
223	0xbdfc8cd4	-0.12331548
224	0x3da23a69	0.07921297
225	0x3d27f9c3	0.041009676
226	0xbe243891	-0.16037203
227	0x3d15a346	0.036532663
228	0xbc8dd186	-0.017311823
229	0xbdc30697	-0.09522741
230	0x3d93f38e	0.07224189
231	0x3d3ebed2	0.0465687
232	0x3ab4594d	0.0013759524
233	0xbda0083e	-0.07814072
234	0x3e0ef2ee	0.13959858
235	0xbde062bc	-0.10956332
236	0xbe252761	-0.16128303
237	0xbcf0648b	-0.029344818
238	0xbda88c93	-0.082299374
239	0xbe27655a	-0.16347256
240	0x3d254c74	0.040356115
241	0x3d89c796	0.06727521
242	0xbdb6d9e2	-0.089282766
243	0xbca6babe	-0.020352717
244	0x3b0bafa1	0.00213144
245	0x3dffd5d7	0.124919586
246	0xbcca2c91	-0.024679454
247	0xbe2dff36	-0.16991886
248	0xbddcade1	-0.10775352
249	0xbceade4f	-0.028670458
250	0x3e0aa376	0.13538918
251	0x3c0de6c5	0.008660977
252	0xbd94e03d	-0.072693326
253	0x3dfbfe6a	0.12304385
254	0x3db0d6d3	0.086347245
255	0x3e11ce94	0.1423896

sequential_12/conv2d_38/Conv2D f4 [64, 3, 3, 64]
0	0xbdc5497e	-0.09633158
1	0xbc0c02ed	-0.008545619
2	0xbcc4bbfa	-0.024015415
3	0xbc327784	-0.010892753
4	0xbd57bbf5	-0.052669484
5	0x3ccf5391	0.025308402
6	0x3d91424c	0.07092723
7	0xbda43f3b	-0.08019873
8	0xbdd93512	-0.106058255
9	0xbe1631ee	-0.14667484
10	0x3db332f6	0.087499544
11	0xbde4c3d4	-0.11170164
12	0xbd4d4b85	-0.05012085
13	0x3d0fdacd	0.035120774
14	0x3d936731	0.071974166
15	0xbd77a337	-0.06045839
16	0xbdfc152e	-0.12308727
17	0xbe1e2dea	-0.15447202
18	0xbd9dd913	-0.07707419
19	0xbdca0144	-0.09863523
20	0x3dc83e56	0.09777515
21	0x3d19b7e4	0.037528887
22	0x3b70379f	0.0036654247
23	0xbd52def9	-0.051482175
24	0xbc219ed6	-0.00986453
25	0xbd8ed71c	-0.069746226
26	0xbd7ae6a5	-0.061255116
27	0x3d8b41c0	0.0679965
28	0xbbce53c5	-0.006296607
29	0xbda84a3d	-0.08217285
30	0xbdc85432	-0.09781684
31	0xbdc8710c	-0.09787187
32	0x3d896e17	0.06710451
33	0xbd0cbad8	-0.034357876
34	0xbc9939db	-0.018704345
35	0x3cea4ff0	0.02860257
36	0xbd8f35d9	-0.069926925
37	0x3b4157d9	0.0029501824
38	0x3e03dd15	0.12877305
39	0x3c5aed9a	0.013362313
40	0xbdd3f028	-0.103485405
41	0xbd9d8020	-0.076904535
42	0xb94f6f41	-0.00019782504
43	0xbd7b541f	-0.06135952
44	0x3d1ec749	0.038764272
45	0xb9cf2fc4	-0.00039517705
46	0x3c3329f0	0.010935292
47	0x3ceb340d	0.028711343
48	0xbd14e47b	-0.03635071
49	0xbd7f8bbd	-0.062389124
50	0x3dbe3188	0.09286791
51	0x3cabde6e	0.020980086
52	0x3ddf916e	0.109164104
53	0xbdc969f1	-0.0983466
54	0x3d42a265	0.047518153
55	0xbd745813	-0.059654307
56	0xbcdfe5f9	-0.02733134
57	0x3da8c811	0.08241285
58	0xbd9f8edf	-0.077909224
59	0xbdd2a8c7	-0.10286098
60	0xbcc504a7	-0.02405007
61	0xbb091178	-0.0020914953
62	0xbbf18c1b	-0.007371438
63	0xbd53a652	-0.051672287
64	0x3dc5c20f	0.09656154
65	0xbd5bf149	-0.053696904
66	0xbd9c3b2a	-0.07628472
67	0xbc45a94a	-0.012064287
68	0x3d9b4909	0.0758229
69	0x3d868bf7	0.06569665
70	0x3d638c1d	0.055553544
71	0x3d9fdc54	0.07805696
72	0xbd77caeb	-0.060496252
73	0xbd9c9148	-0.07644898
74	0x3dadacd6	0.084802315
75	0x3e386c7d	0.18010135
76	0xbdcd0707	-0.10011106
77	0xbd275b6a	-0.040858664
78	0xbd3d82b5	-0.04626723
79	0x3e0944fb	0.1340522
80	0xbdac1bab	-0.08403715
81	0xbe3ec0f2	-0.1862829
82	0xbd95b0a9	-0.07309086
83	0x3c759c70	0.014990911
84	0x3d6466f2	0.05576224
85	0xbdaf52f4	-0.08560744
86	0x3d4b28fe	0.04959964
87	0xbdcddcdc	-0.10051891
88	0xbe080205	-0.1328202
89	0x3d74cda0	0.05976641
90	0x3c296d6b	0.010341029
91	0x3d8e11ee	0.069370136
92	0x3dbdb61e	0.09263252
93	0xbd854ee0	-0.06509185
94	0x3d24eb45	0.040263433
95	0x3d9588d4	0.073014885
96	0xbd7d0165	-0.061768908
97	0x3d44ca42	0.04804445
98	0x3c0b88e6	0.008516526
99	0x3dd6f8c2	0.104966655
100	0x3dc1f5d0	0.09470713
101	0xbe22dff8	-0.1590575
102	0xbc993193	-0.018700397
103	0x3c9017b3	0.017589426
104	0x3d3c2ee3	0.045943152
105	0x3b27f860	0.002563022
106	0x3e1025b0	0.14076877
107	0xbd8db20a	-0.06918724
108	0xbac480fd	-0.0014992055
109	0xbcfd4058	-0.03091447
110	0x3d0a3091	0.033737723
111	0x3bd17ca7	0.0063930335
112	0x3e084e95	0.13311227
113	0xbd73f959	-0.05956397
114	0x3c310609	0.010804662
115	0x3d44077f	0.04785871
116	0xbb78dd90	-0.0037973858
117	0xbd00a737	-0.03140947
118	0x3d0f8a19	0.03504381
119	0x3d15cb20	0.03657067
120	0xbd142d4f	-0.036176022
121	0xbce48306	-0.027894508
122	0xbdab4dcf	-0.0836445
123	0xbc3cfe97	-0.011535308
124	0xbc7c7e5f	-0.015410989
125	0x3e36fc02	0.17869571
126	0x3dc065b0	0.09394395
127	0x3a769673	0.0009406574
128	0xbdced915	-0.10099999
129	0xbd9132c6	-0.070897624
130	0x3c7c7853	0.015409547
131	0xbcb9cc4d	-0.022680426
132	0x3cb80556	0.022463482
133	0x3d56712b	0.05235402
134	0x3d017c05	0.031612415
135	0x3e172f3d	0.14764114
136	0x3c930bbf	0.017949937
137	0xbc023884	-0.007948045
138	0x3d2c716a	0.042100348
139	0xbdc025c3	-0.093822025
140	0xbd896914	-0.06709495
141	0x3d304344	0.0430329
142	0x3d835e5a	0.064144805
143	0x3cb213aa	0.021737892
144	0xbdc32367	-0.09528237
145	0xbd9884e4	-0.07447222
146	0xbd554479	-0.052067254
147	0x3d015a25	0.03158011
148	0xbd9238c5	-0.07139734
149	0x3cf323a0	0.029680073
150	0xbd995a14	-0.07487884
151	0x3d0e8764	0.034797087
152	0xbdbeaf8a	-0.09310825
153	0xbdc5dd53	-0.09661355
154	0x3d5f2852	0.05448181
155	0x3e4769f5	0.19474013
156	0xbd13909d	-0.036026586
157	0xbe480c6c	-0.19535989
158	0xbe0dd856	-0.13852057
159	0x3c4376bb	0.011930163
160	0xbdc9dab8	-0.098561704
161	0xbdbc1bca	-0.09184988
162	0x3cb82d7d	0.022482628
163	0xbc2027be	-0.0097751
164	0xb9664437	-0.00021959921
165	0x3e67ae7e	0.22625157
166	0xbdbfd177	-0.09366124
167	0x3d111880	0.035423756
168	0xbcdf663e	-0.027270433
169	0x3df39ecb	0.11895522
170	0xbd6a8b71	-0.057261888
171	0xbd8e4928	-0.06947547
172	0xbd89bbbb	-0.0672526
173	0xbd0f79b6	-0.035028182
174	0xbdaee263	-0.085392736
175	0xbcfac9fa	-0.030613888
176	0xba9474fc	-0.0011326368
177	0xbd419d05	-0.047268886
178	0x3c980b70	0.018560141
179	0x3dd856e1	0.10563446
180	0xbd6d7cc4	-0.057980314
181	0xbd7f64e0	-0.06235206
182	0xbced2ed7	-0.028952999
183	0x3dbae7c8	0.0912624
184	0x3df6f687	0.1205874
185	0x3de7a44c	0.11310634
186	0xbcbc2a29	-0.022969322
187	0xbe182a9c	-0.14860004
188	0xbdb5363e	-0.088482365
189	0xbdf0333e	-0.11728524
190	0xbc8922d5	-0.016740242
191	0xbddf5ae4	-0.10906008
192	0xbd32bc89	-0.043636832
193	0xbcc37dd3	-0.023863709
194	0x3d00467d	0.031317223
195	0x3da269b2	0.07930316
196	0xbda9a199	-0.082827754
197	0x3d1e8a25	0.038705964
198	0x3d5ff96e	0.054681234
199	0x3d28b483	0.041187774
200	0x3c7211d9	0.014774763
201	0x3ceeb8fe	0.029140946
202	0x3cd80a03	0.026371961
203	0x3dfb0482	0.12256719
204	0x3d9a0df0	0.075221896
205	0xbd5ae12c	-0.053437397
206	0xbda3776f	-0.079817645
207	0xbcf5815c	-0.02996891
208	0x3d0dba6e	0.03460162
209	0xbbbc0be8	-0.005738724
210	0xbdbd23d1	-0.09235347
211	0xba58ffe9	-0.00082778797
212	0x3d3bebe6	0.045879267
213	0x3d29076a	0.041266836
214	0xbbf27001	-0.007398606
215	0xbe0ab85f	-0.13546894
216	0xbd6382e4	-0.05554475
217	0x3da21e6c	0.07915959
218	0x3c2b2951	0.010446862
219	0xbda29370	-0.07938278
220	0xbd54562d	-0.051839996
221	0x3bba8f47	0.0056933495
222	0x3d99b42f	0.075050704
223	0xbd901455	-0.07035128
224	0xbc4f8494	-0.012665886
225	0xbbead3ea	-0.0071663754
226	0x3b80e02d	0.003932974
227	0x3d181336	0.037127696
228	0x3de14439	0.109993406
229	0xbd7b9f87	-0.061431434
230	0xbc83ec79	-0.01610397
231	0x3cf94cc2	0.030432109
232	0xbe1f912b	-0.15582721
233	0x3d75dca0	0.060024858
234	0x3ca67ba0	0.02032262
235	0x3d20360f	0.039114054
236	0xbdc746e1	-0.09730316
237	0x3daccc96	0.08437459
238	0x3d85c126	0.06530981
239	0xbd8650b3	-0.06558361
240	0x3cbe3869	0.023220258
241	0x3d821c1d	0.063530184
242	0x3d763c80	0.06011629
243	0xbd7559c0	-0.059900045
244	0xbcea29f7	-0.028584464
245	0x3ddb88a3	0.10719421
246	0xbdc2ac39	-0.09505505
247	0xbd97050d	-0.0737401
248	0xbb166ea2	-0.0022954126
249	0xbd2aadbd	-0.041669596
250	0xbd8fe4d7	-0.070260696
251	0xbd8f4792	-0.06996073
252	0xbdc64382	-0.09680845
253	0x3c2c56f3	0.010518777
254	0x3d540012	0.05175788
255	0x3d99f0b1	0.07516611
